S5/output/csv/version_3/checkpoints/epoch=4-step=275-v2.ckpt (torch, 179611 bytes, 152 tensors)

net.convblock1.0.weight f4 [10, 1, 3, 3]
0.023047352 0.32356322 0.2762708 -0.2442695 0.32864612 -0.24499188 0.2604623 -0.25202885
0.2559859 -0.24467658 0.092224754 -0.22427472 0.22328669 0.22184189 -0.23957594 -0.20198777
0.27209914 0.13731894 0.008181387 -0.19783875 -0.1835585 0.088306464 0.02486428 -0.20398967
-0.18287013 0.075959384 -0.18884166 -0.0022801207 0.29761 0.11572003 -0.31749925 -0.24623446
-0.3600812 0.12567665 0.021660952 -0.17034467 0.2509977 -0.01688455 -0.22533289 0.1009684
-0.0065770666 -0.24985546 0.22192802 0.121170714 0.23515333 0.0075947004 -0.19641152 -0.027877375
-0.38012102 -0.0665482 -0.06496013 -0.32120815 0.28195786 0.32443535 -0.07676624 -0.2676945
0.17451365 0.2905657 -0.09293217 -0.2064791 -0.22019075 0.26320535 0.028443309 -0.27945146
-0.0017335066 -0.1099158 0.0019326619 -0.020434452 -0.22660066 -0.31121856 -0.091450155 -0.13836248
0.18054278 0.10570574 -0.12549393 -0.2423585 -0.2939255 -0.33611372 -0.21325189 -0.2966156
-0.076799676 -0.1848297 -0.21756366 -0.19956622 0.048597876 -0.14962314 -0.25307587 -0.17135017
0.32899716 0.34647512
00000000: cdcd bc3c 14aa a53e 5e73 8d3e c921 7abe
00000010: 4e44 a83e 27df 7abe 515b 853e ed09 81be
00000020: 9510 833e 7f8c 7abe 55e0 bc3d 46a8 65be
00000030: 44a5 643e 852a 633e 6553 75be e2d5 4ebe
00000040: 9450 8b3e 569d 0c3e 390b 063c 3e96 4abe
00000050: c2f6 3bbe 05da b43d 2db0 cb3c abe2 50be
00000060: 4f42 3bbe 9890 9b3d b55f 41be 146e 15bb
00000070: 5760 983e a0fe ec3d 438f a2be e324 7cbe
00000080: 905c b8be 61b1 003e 4f72 b13c d56e 2ebe
00000090: c582 803e 7851 8abc aabd 66be 85c8 ce3d
000000a0: 6f84 d7bb 1cda 7fbe 1941 633e 5a28 f83d
000000b0: 09cc 703e f7dc f83b 1a20 49be 185f e4bc
000000c0: 399f c2be 6c4a 88bd d109 85bd 6575 a4be
000000d0: c85c 903e 641c a63e 9e37 9dbd 410f 89be
000000e0: b5b3 323e 07c5 943e 3953 bebd 426f 53be
000000f0: af79 61be dac2 863e f101 e93c 4314 8fbe
00000100: d436 e3ba 891b e1bd 5f51 fd3a 2766 a7bc
00000110: 010a 68be 0a58 9fbe 384a bbbd e5ae 0dbe
00000120: 35e0 383e 407c d83d 7b81 00be d42c 78be
00000130: 677d 96be 1917 acbe b45e 5abe 00de 97be
00000140: 2649 9dbd ff43 3dbe 02c9 5ebe 165b 4cbe
00000150: 910e 473d cf36 19be 2993 81be 6b76 2fbe
00000160: 5172 a83e 3065 b13e

net.convblock1.0.bias f4 [10]
-0.10643717 -0.15746704 0.31027466 -0.1685751 0.00621122 -0.20987263 0.042961277 -0.10093721
-0.16619033 0.23458572
00000000: bbfb d9bd 0a3f 21be 52dc 9e3e f39e 2cbe
00000010: 7d87 cb3b dae8 56be 2af8 2f3d 2bb8 cebd
00000020: cc2d 2abe 3d37 703e

net.convblock1.2.weight f4 [10]
0.9324115 1.0042762 0.97625375 1.0318204 1.0126767 1.05177 1.0163321 0.9635656
1.0088304 1.0382073
00000000: 85b2 6e3f 1f8c 803f c4eb 793f b112 843f
00000010: 649f 813f 66a0 863f 2c17 823f 3cac 763f
00000020: 5b21 813f fae3 843f

net.convblock1.2.bias f4 [10]
-0.005289346 0.019574685 -0.026264612 0.038187847 0.041124966 -0.011164065 0.03060501 -0.009348245
-0.0039974255 0.00089588517
00000000: 4052 adbb 175b a03c e228 d7bc dc6a 1c3d
00000010: a772 283d 7ce9 36bc 5cb7 fa3c 6229 19bc
00000020: d6fc 82bb d6d9 6a3a

net.convblock2.0.weight f4 [16, 10, 3, 3]
0.07810391 -0.09599657 -0.10718616 0.022701869 0.08676641 -0.0016058433 -0.053641938 0.010436875
0.05095727 -0.07908669 0.057217956 -0.10053418 -0.074543916 0.08535373 0.001197409 -0.0081186555
-0.089819066 0.017294824 -0.023097983 -0.0013252244 -0.027236477 0.022591896 -0.08086095 -0.01262209
0.101897046 -0.005987294 -0.104536876 -0.01223722 -0.023197312 0.07563091 -0.07282197 -0.030855333
-0.0672554 -0.04297129 0.040003087 -0.0688627 0.022236869 0.07254267 0.06899286 -0.083576664
-0.08705834 -0.01457568 -0.12653807 -0.052466966 -0.017797332 -0.13739493 -0.11786865 -0.11252065
-0.040597435 -0.09003281 -0.021179812 0.048244834 -0.031756565 -0.03298153 0.0010821879 0.09753125
0.097260214 -0.014757296 -0.0651072 -0.028182227 0.009059113 -0.08470624 0.022194622 0.01790074
-0.07871242 0.050024934 0.07935654 0.04110023 0.027013969 0.093141854 -0.009937464 -0.005744341
0.0075925523 -0.058864057 -0.08487706 0.01631199 -0.08552143 -0.036596615 0.10193431 -0.0052172374
0.038226496 -0.010845015 0.05429672 -0.08487449 -0.050480768 -0.06891737 -0.051045526 0.025323948
0.011465293 0.0072546545 -0.058297306 -0.14968953 0.0273455 -0.026125584 0.03837188 0.08536878
-0.015083662 0.07553357 -0.03460844 -0.0045871865 0.068564564 0.076347895 0.1190422 0.010640734
-0.04005416 0.09112112 -0.008336245 0.07425462 0.032668315 0.023671236 -0.026184786 -0.05365438
-0.032076314 -0.03701295 -0.04660711 0.004014986 -0.11001263 -0.00016215097 -0.044444904 -0.10351294
-0.0014876351 -0.04315497 0.012510034 0.11884073 0.07138801 0.12545604 0.0069892486 0.08393375
-0.069745235 0.06565912 -0.0615671 0.06698106 0.08703666 -0.12824373 -0.0040069674 -0.034905937
-0.0589154 -0.0004242262 0.023624776 -0.0700591 0.051844046 -0.078412786 -0.012865279 -0.065746345
0.079084575 0.09461149 0.15216106 0.030768294 0.07408556 0.12042831 0.09705166 -0.08042406
-0.080179356 0.06170873 -0.064826205 0.044223532 -0.036336035 -0.10172113 -0.1005206 0.09738196
0.03960807 0.05188223 -0.006596685 0.031757995 -0.084159434 0.032063104 -0.0061334963 -0.054858696
0.0731433 -0.07033008 -0.03841398 -0.098482266 0.042752367 -0.008597344 -0.071510635 0.06955362
0.07829079 -0.099043325 -0.02015645 -0.07469596 0.061535086 -0.054383654 -0.023173835 -0.03617087
0.020173289 -0.05526385 0.050331485 -0.024884798 0.103127815 0.02673259 0.01691362 0.059951115
-0.02143148 0.09757898 -0.01315209 -0.015650082 -0.09646105 -0.056654375 -0.017084297 0.007838686
0.001828689 -0.056593154 -0.03669111 0.030966468 0.00233055 0.0058558495 0.015153645 -0.12775828
0.036990542 -0.006840517 -0.033141945 -0.01179202 -0.032229625 0.047195036 0.0039040972 0.00012860478
-0.031962853 0.03636855 -0.0636642 -0.08862583 0.07386903 0.047759477 0.02065457 -0.047986854
-0.056684554 -0.09437476 -0.07035422 0.0978173 0.098263994 -0.103054374 -0.11901451 -0.015627017
-0.015754137 -0.031463325 -0.06936484 0.035249706 -0.02462264 0.00020216391 -0.060265865 -0.0857622
0.05955317 -0.12736529 -0.0074806344 0.058485396 -0.03767765 0.016529083 -0.06785134 0.0498585
-0.08675541 0.06824027 0.025922174 0.04587391 -0.022247713 -0.06643231 -0.01372199 0.070660986
00000000: f1f4 9f3d da99 c4bd 6b84 dbbd 45f9 b93c
00000010: 96b2 b13d 297b d2ba a6b7 5bbd 6dff 2a3c
00000020: 92b8 503d 34f8 a1bd 605d 6a3d dde4 cdbd
00000030: 7baa 98bd f0cd ae3d 61f2 9c3a 1c04 05bc
00000040: 0ff3 b7bd e0ad 8d3c fb37 bdbc 27b3 adba
00000050: 081f dfbc a412 b93c 6d9a a5bd e2cc 4ebc
00000060: 66af d03d 1031 c4bb 6e17 d6bd 9f7e 48bc
00000070: 4a08 bebc 61e4 9a3d af23 95bd 53c4 fcbc
00000080: 33bd 89bd aa02 30bd 47da 233d e307 8dbd
00000090: 182a b63c 4091 943d 214c 8d3d 3e2a abbd
000000a0: a54b b2bd d5ce 6ebc 3293 01be 9ae7 56bd
000000b0: b6cb 91bc 42b1 0cbe 1e65 f1bd 3a71 e6bd
000000c0: 7f49 26bd 1f63 b8bd 4981 adbc 609c 453d
000000d0: 2c13 02bd a417 07bd 33d8 8d3a 77be c73d
000000e0: 5d30 c73d 96c8 71bc ec56 85bd 6ade e6bc
000000f0: ad6c 143c 777a adbd 7fd1 b53c 93a4 923c
00000100: fa33 a1bd f2e6 4c3d af85 a23d b758 283d
00000110: 664c dd3c 28c1 be3d bfd0 22bc 063b bcbb
00000120: f2ca f83b 701b 71bd 06d4 adbd b9a0 853c
00000130: dc25 afbd 55e6 15bd efc2 d03d 5cf5 aabb
00000140: 6393 1c3d 4aaf 31bc 3d66 5e3d add2 adbd
00000150: ecc4 4ebd 8d24 8dbd 1d15 51bd 2b74 cf3c
00000160: edd8 3b3c 74b8 ed3b 28c9 6ebd 3648 19be
00000170: ac03 e03c 5205 d6bc d52b 1d3d d4d5 ae3d
00000180: 7721 77bc 58b1 9a3d 94c1 0dbd 1c50 96bb
00000190: 946b 8c3d 495c 9c3d 66cc f33d 7956 2e3c
000001a0: d50f 24bd b69d ba3d bf94 08bc ce12 983d
000001b0: 36cf 053d 2eea c13c 7a81 d6bc b2c4 5bbd
000001c0: 7462 03bd e49a 17bd 19e7 3ebd 2590 833b
000001d0: 4d4e e1bd 1207 2ab9 dc0b 36bd 98fe d3bd
000001e0: c0fc c2ba 44c3 30bd e3f6 4c3c c562 f33d
000001f0: e133 923d 8c77 003e 1106 e53b 75e5 ab3d
00000200: 97d6 8ebd 4a78 863d c92d 7cbd 5e2d 893d
00000210: 4740 b23d 5352 03be e14c 83bb 87f9 0ebd
00000220: 4651 71bd ad6a deb9 bf88 c13c 257b 8fbd
00000230: 6c5a 543d e296 a0bd e4c8 52bc 05a6 86bd
00000240: 18f7 a13d abc3 c13d 1cd0 1b3e ca0d fc3c
00000250: 2cba 973d 1ea3 f63d 05c3 c63d 5fb5 a4bd
00000260: 1335 a4bd 4bc2 7c3d 9ac3 84bd bc23 353d
00000270: 18d5 14bd 2b53 d0bd bfdd cdbd 3170 c73d
00000280: 123c 223d 7682 543d 0129 d8bb ac14 023d
00000290: c85b acbd 9a54 033d 7ffb c8bb 83b3 60bd
000002a0: 28cc 953d 3809 90bd fa57 1dbd 12b1 c9bd
000002b0: 1b1d 2f3d e0db 0cbc 2b74 92bd 2172 8e3d
000002c0: ec56 a03d 3ad7 cabd 241f a5bc 32fa 98bd
000002d0: 370c 7c3d 65c1 5ebd 0ed7 bdbc e827 14bd
000002e0: 7442 a53c 595c 62bd 6328 4e3d 34db cbbc
000002f0: ad34 d33d 4efe da3c 6f8e 8a3c 4d8f 753d
00000300: 1291 afbc 7dd7 c73d dd7b 57bc 9a34 80bc
00000310: 5f8d c5bd 6b0e 68bd 5ef4 8bbc d56d 003c
00000320: 9fb0 ef3a 39ce 67bd 6b49 16bd 64ad fd3c
00000330: 24bc 183b 6de2 bf3b fe46 783c 11d3 02be
00000340: 6583 173d 6a26 e0bb d9bf 07bd 5133 41bc
00000350: 3603 04bd 954f 413d e2db 7f3b 15da 0639
00000360: 7beb 02bd 30f7 143d 6062 82bd 7681 b5bd
00000370: a548 973d 719f 433d c633 a93c dd8d 44bd
00000380: 102e 68bd 8e47 c1bd e015 90bd 7054 c83d
00000390: a23e c93d 2c0e d3bd e1bd f3bd 3b04 80bc
000003a0: d20e 81bc b0df 00bd 270f 8ebd ff61 103d
000003b0: 6bb5 c9bc f6fb 5339 57d9 76bd 18a4 afbd
000003c0: 06ee 733d 0c6c 02be 1c20 f5bb 628e 6f3d
000003d0: e153 1abd 0068 873c a5f5 8abd 6d38 4c3d
000003e0: d2ac b1bd 8ec1 8b3d bd5a d43c 48e6 3b3d
000003f0: d640 b6bc aa0d 88bd 33d2 60bc b5b6 903d

net.convblock2.0.bias f4 [16]
-0.08688931 0.043623257 0.054789398 -0.07721068 0.01759305 -0.05168583 -0.11623446 0.07347217
0.007857052 -0.050903395 0.09578252 0.12531564 -0.02440914 0.006873688 -0.048956033 -0.028242165
00000000: 06f3 b1bd 4dae 323d d96a 603d a220 9ebd
00000010: 4d1f 903c 85b4 53bd 550c eebd 9478 963d
00000020: ddba 003c 1480 50bd a029 c43d be52 003e
00000030: adf5 c7bc ad3c e13b 1f86 48bd 1d5c e7bc

net.convblock2.2.weight f4 [16]
1.006488 1.0302571 0.9784336 0.9558683 0.9892805 1.0074439 0.9625656 0.99792933
1.0261674 1.0355811 0.9760768 0.9922508 1.026082 1.0355659 0.99405324 1.0276793
00000000: 99d4 803f 77df 833f a07a 7a3f c9b3 743f
00000010: 7d41 7d3f ecf3 803f b36a 763f 4c78 7f3f
00000020: 7459 833f ec8d 843f 2be0 793f 2604 7e3f
00000030: a856 833f 6c8d 843f 467a 7e3f ff8a 833f

net.convblock2.2.bias f4 [16]
-0.0028571791 -0.01667662 -0.0120184785 0.011443218 0.011135496 0.0091312 -0.018704077 -0.0090496475
-0.05363951 -0.034243975 0.00032405663 0.027686527 -0.0138164405 -0.060068067 0.0106594935 -0.053678274
00000000: 833f 3bbb 689d 88bc 27e9 44bc 567c 3b3c
00000010: a871 363c 079b 153c 4b39 99bc f944 14bc
00000020: 1ab5 5bbd 6943 0cbd 25e6 a939 dbce e23c
00000030: 5a5e 62bc ef09 76bd 28a5 2e3c c0dd 5bbd

net.convblock3.0.weight f4 [8, 16, 1, 1]
0.027250672 -0.19293801 0.07936153 -0.027115153 0.20946564 0.07018193 -0.17162965 0.22446346
0.05487023 0.024467435 0.08791665 0.06033412 0.22818579 0.07665157 0.14687978 0.062244758
0.04004196 0.03203646 0.1903071 0.079727784 0.06205611 0.08315107 0.067918636 -0.014431607
0.21338944 -0.01989102 -0.05840553 0.161737 0.10003556 -0.16684496 -0.25343844 0.2350791
-0.07600514 -0.08775946 0.15403382 0.09970452 -0.17061996 -0.17720653 0.23734143 -0.11416166
0.17808005 0.005404471 -0.15447606 -0.21993312 0.13504638 0.28621754 -0.18445349 -0.14685535
0.2899266 0.10110178 0.18120097 -0.19979627 -0.19686626 -0.056029666 -0.034289863 -0.22614066
0.07946448 0.07055956 -0.24830432 0.08891225 0.0558157 0.13604394 -0.05984663 -0.059175733
0.07334154 -0.08505062 0.12182315 -0.035346914 -0.036826123 -0.24694446 -0.063905686 0.087414995
-0.05104338 -0.13762334 0.046091355 -0.05485618 0.15041417 0.20859149 0.02802934 -0.06693312
-0.12514843 -0.16021605 -0.22743271 0.12824139 -0.29836732 -0.088902466 0.12627684 -0.18785016
-0.15475476 0.15651515 0.05468209 -0.12244263 0.15154286 0.19971524 0.027422437 -0.24658588
0.24176203 0.08837562 0.21780741 -0.21243156 -0.15413424 -0.13031363 -0.11832965 0.18707997
-0.19251572 -0.2518448 0.015077984 0.16841766 -0.12708984 -0.15854582 0.048079524 -0.26198375
-0.10287864 0.30914092 0.23342182 0.10841958 -0.021093655 0.07341159 0.22238982 -0.12213059
0.03636306 0.07074021 -0.075489245 -0.048936203 -0.030494776 0.16252202 0.08690155 0.11148557
00000000: cd3c df3c 8b91 45be 4c88 a23d 9920 debc
00000010: 297e 563e 8bbb 8f3d afbf 2fbe c0d9 653e
00000020: 9bbf 603d ee6f c83c a50d b43d e920 773d
00000030: 89a9 693e 80fb 9c3d a767 163e 5cf4 7e3d
00000040: 0a03 243d aa38 033d dddf 423e 5248 a33d
00000050: 8c2e 7e3d 1c4b aa3d ed18 8b3d 8c72 6cbc
00000060: c382 5a3e 7ef2 a2bc a33a 6fbd 629e 253e
00000070: 72df cc3d 68d9 2abe afc2 81be 93b8 703e
00000080: 95a8 9bbd 3bbb b3bd 0bbb 1d3e e231 cc3d
00000090: 00b7 2ebe a175 35be a209 733e 97cd e9bd
000000a0: 9e5a 363e fd17 b13b f92e 1ebe 2636 61be
000000b0: 9949 0a3e 1b8b 923e 60e1 3cbe 4061 16be
000000c0: 4271 943e 730e cf3d bf8c 393e 6597 4cbe
000000d0: 4f97 49be 5d7f 65bd 8773 0cbd 6b91 67be
000000e0: 46be a23d 8881 903d 7d43 7ebe a017 b63d
000000f0: 019f 643d 1a4f 0b3e bd21 75bd 4162 72bd
00000100: 1734 963d 052f aebd 6a7e f93d edc7 10bd
00000110: fdd6 16bd 02df 7cbe fce0 82bd a206 b33d
00000120: dd12 51bd 22ed 0cbe 4aca 3c3d e0b0 60bd
00000130: 2c06 1a3e 0299 553e c99d e53c 3b14 89bd
00000140: e926 00be ad0f 24be 1fe4 68be b651 033e
00000150: 9ac3 98be 7f12 b6bd b74e 013e cb5b 40be
00000160: 0878 1ebe 8245 203e 54fa 5f3d 34c3 fabd
00000170: 0d2e 1b3e 2782 4c3e 05a5 e03c 0281 7cbe
00000180: 7790 773e 47fe b43d e808 5f3e a987 59be
00000190: 5ed5 1dbe f070 05be d156 f2bd e491 3f3e
000001a0: d722 45be cdf1 80be a609 773c ae75 2c3e
000001b0: d723 02be d659 22be 09ef 443d bc22 86be
000001c0: 09b2 d2bd b847 9e3e 2106 6f3e 160b de3d
000001d0: 9acc acbc d158 963d 28ba 633e 9a1f fabd
000001e0: 6ff1 143d 3ee0 903d 1b9a 9abd 5471 48bd
000001f0: 2ed0 f9bc 2c6c 263e 71f9 b13d 8c52 e43d

net.convblock3.0.bias f4 [8]
-0.12976688 0.17379895 0.21725677 0.033132266 0.19756424 -0.20434327 -0.10870467 -0.16776861
00000000: 9ce1 04be 5af8 313e 8f78 5e3e b3b5 073d
00000010: 484e 4a3e 5d3f 51be 8ea0 debd 89cb 2bbe

net.convblock3.2.weight f4 [8]
1.0066344 1.0703983 0.91838473 1.0236902 0.97838104 0.9654605 1.0580443 0.91710454
00000000: 65d9 803f d002 893f 431b 6b3f 4808 833f
00000010: 2e77 7a3f 6b28 773f ff6d 873f 5dc7 6a3f

net.convblock3.2.bias f4 [8]
-0.011197761 0.034365416 0.047428906 -0.0094827525 -0.029837841 0.020344494 -0.030645939 0.02834038
00000000: d076 37bc c0c2 0c3d d044 423d 8c5d 1bbc
00000010: 7d6e f4bc 7fa9 a63c 310d fbbc 162a e83c

net.convblock4.0.weight f4 [16, 8, 3, 3]
0.11584612 -0.08013626 0.1061063 0.0724145 -0.07034443 0.100767106 -0.11621201 0.019892886
-0.013938928 0.07255191 0.06619743 0.119058706 0.08763645 -0.019349221 -0.07192552 -0.1617004
-0.11461809 -0.11539547 -0.06459885 0.072915375 -0.023448931 0.0027540058 0.0653604 -0.05309889
-0.03644985 0.074786805 -0.033689655 -0.0024554422 -0.009819345 0.11964455 0.07875776 -0.032880943
-0.0528454 -0.017879121 -0.011632861 -0.099057175 -0.07776722 0.026184471 -0.059891198 0.027737724
-0.024906883 -0.012865221 0.15169159 0.017410753 -0.026900463 -0.08353732 0.0050062146 0.026765384
-0.036933117 -0.03191503 0.01586629 0.0071115308 0.09851037 -0.02434376 -0.095342554 -0.058216546
-0.022469966 0.1340927 -0.079793885 0.12676576 0.018249985 0.053396087 -0.043908533 0.064159535
0.026132146 -0.021233045 0.055063277 -0.0741378 0.047677517 -0.09121973 -0.0263924 -0.05193853
-0.01828709 0.0586957 0.041021775 0.05575988 -0.045029666 0.08591362 0.018838262 -0.098879054
0.043047555 0.018776342 -0.0651394 -0.09145883 0.08850538 -0.073671676 -0.08208717 0.09224609
0.100374214 -0.02345411 -0.020327969 -0.01772 0.10011268 -0.023279287 0.0061151567 0.02550452
-0.038394865 0.065082036 0.09070407 0.0009585838 -0.106657736 -0.08788269 0.02843849 -0.025807427
-0.08462752 0.12313811 0.0018676564 -0.064589724 -0.09617017 -0.03181197 0.029307477 -0.060164288
0.01791994 0.078260586 -0.14172356 0.0016852735 7.620554e-05 -0.03475803 -0.046822812 0.06378907
0.023672301 -0.015687825 0.038622797 0.060151663 0.008310841 -0.0028723094 -0.17198211 0.05828585
0.010325792 -0.17042379 0.1232028 -0.08090037 -0.09760063 0.104903124 -0.053249083 0.010388417
0.06577167 -0.018476946 -0.07000002 0.010747691 0.11274131 0.051265247 0.06893268 0.101841845
0.02561008 -0.00943118 -0.054680698 -0.03250395 -0.0718524 0.03720805 -0.04914019 -0.03311975
-0.1220079 -0.07600817 0.0014480653 0.017741695 0.03632092 0.046566486 -0.017515527 0.03956432
0.040465996 -0.045521352 -0.006728604 -0.06055431 0.026571073 0.0927797 -0.07796858 0.01978382
-0.05542037 -0.049106296 -0.08735621 0.026883146 -0.055877596 0.04091765 0.04612929 0.013337785
-0.0017487225 0.017118214 0.07036266 0.10983692 0.13959104 0.01787238 0.10224001 0.053249408
0.03590559 0.0936911 0.06520142 0.094094194 -0.07393219 -0.047877774 0.120589785 0.050444588
0.0664014 -0.075404674 -0.08877078 -0.053067572 0.102223806 -0.08780138 -0.01913814 0.10681753
0.08253677 0.037984524 0.024393342 -0.066373736 0.052321352 0.0025639078 0.08747291 0.05433852
-0.10158915 -0.10086028 0.04198547 0.098549664 -0.011578253 -0.0193479 0.026648263 -0.041651495
-0.0563349 0.10214303 -0.039775904 0.10754151 -0.06165548 -0.07981983 -0.075784475 -0.01435895
0.10236513 -0.103685685 -0.02110518 -0.09341432 0.09920329 0.029865332 0.07678298 0.03593592
-0.0722701 0.028771497 0.11651537 0.015260926 -0.06071123 -0.05494201 -0.098211415 -0.08185457
0.032212816 -0.09234745 -0.0039816373 -0.04570484 0.043070097 0.083226874 0.08501777 -0.02733878
0.07214607 0.068491176 0.11732624 0.09141974 -0.090451576 0.08528165 0.10902639 -0.13622625
00000000: bb40 ed3d 7b1e a4bd 434e d93d 0e4e 943d
00000010: be10 90bd fc5e ce3d 9000 eebd 68f6 a23c
00000020: 1a60 64bc 1996 943d 8592 873d 0dd5 f33d
00000030: bd7a b33d 4282 9ebc b04d 93bd ca94 25be
00000040: e4bc eabd 7654 ecbd 674c 84bd a854 953d
00000050: f917 c0bc 8d7c 343b acdb 853d 397e 59bd
00000060: 704c 15bd d329 993d 2afe 09bd 7ceb 20bb
00000070: 51e1 20bc 3408 f53d c04b a13d 2bae 06bd
00000080: 6b74 58bd 3c77 92bc c197 3ebc 7dde cabd
00000090: 6c44 9fbd d180 d63c 7950 75bd 393a e33c
000000a0: 8509 ccbc a6c8 52bc 0a55 1b3e ffa0 8e3c
000000b0: 5c5e dcbc 9d15 abbd 2c0b a43b 1443 db3c
000000c0: 2e47 17bd 56b9 02bd 06fa 813c d807 e93b
000000d0: cebf c93d 916c c7bc f542 c3bd 7974 6ebd
000000e0: ef12 b8bc 994f 093e fa6a a3bd e2ce 013e
000000f0: fe80 953c dbb5 5a3d 6fd9 33bd 1366 833d
00000100: 1513 d63c ecf0 adbc 088a 613d 8fd5 97bd
00000110: 8049 433d 69d1 babd e034 d8bc 7fbd 54bd
00000120: cfce 95bc e76a 703d 7306 283d 7964 643d
00000130: 0771 38bd 7bf3 af3d b352 9a3c 1a81 cabd
00000140: a252 303d d8d0 993c ce67 85bd c44e bbbd
00000150: 4f42 b53d 2de1 96bd 511d a8bd 85eb bc3d
00000160: ff90 cd3d d522 c0bc d786 a6bc 8929 91bc
00000170: e007 cd3d 34b4 bebc a761 c83b dbee d03c
00000180: ef43 1dbd bb49 853d 0ec3 b93d 7849 7b3a
00000190: 5f6f dabd d7fb b3bd d6f7 e83c 196a d3bc
000001a0: 3151 adbd d52f fc3d 26cc f43a 9e47 84bd
000001b0: def4 c4bd 454d 02bd 3c16 f03c d46e 76bd
000001c0: d7cc 923c 1647 a03d fb1f 11be 65e4 dc3a
000001d0: 8ad0 9f38 705e 0ebd 47c9 3fbd d8a3 823d
000001e0: 6aec c13c c183 80bc f032 1e3d 9761 763d
000001f0: 322a 083c 5b3d 3cbb 141c 30be 25bd 6e3d
00000200: 832d 293c 9383 2ebe c051 fc3d 18af a5bd
00000210: d7e2 c7bd 73d7 d63d b61b 5abd 2e34 2a3c
00000220: 4cb3 863d f75c 97bc 2c5c 8fbd 1517 303c
00000230: eae4 e63d 82fb 513d 942c 8d3d 7592 d03d
00000240: 3bcc d13c 3c85 1abc def8 5fbd dd22 05bd
00000250: 5a27 93bd 7867 183d 3947 49bd 93a8 07bd
00000260: 47df f9bd 2caa 9bbd 02cd bd3a 0857 913c
00000270: 3fc5 143d 80bc 3e3d b97c 8fbc 320e 223d
00000280: acbf 253d 9974 3abd 9f7b dcbb cc07 78bd
00000290: 94ab d93c 4903 be3d fead 9fbd ad11 a23c
000002a0: 7800 63bd af23 49bd d0e7 b2bd 0b3a dc3c
000002b0: e8df 64bd 4499 273d 11f2 3c3d ba86 5a3c
000002c0: 6435 e5ba 7f3b 8c3c 4c1a 903d 2ef2 e03d
000002d0: f4f0 0e3e 1969 923c 3663 d13d 0d1c 5a3d
000002e0: bd11 133d 1fe1 bf3d 5288 853d 75b4 c03d
000002f0: c369 97bd 7c1b 44bd c7f7 f63d fc9e 4e3d
00000300: 75fd 873d c46d 9abd 74cd b5bd 625d 59bd
00000310: b75a d13d 36d1 b3bd 97c7 9cbc 26c3 da3d
00000320: 0a09 a93d a995 1b3d 8cd4 c73c f4ee 87bd
00000330: ea4e 563d 3c07 283b ff24 b33d 1192 5e3d
00000340: f90d d0bd d68f cebd f5f8 2b3d 68d4 c93d
00000350: b6b2 3dbc 7d7f 9ebc 754d da3c c29a 2abd
00000360: 6dbf 66bd 5d30 d13d 0fec 22bd b93e dc3d
00000370: 758a 7cbd 9478 a3bd e434 9bbd cd41 6bbc
00000380: cfa4 d13d 2959 d4bd c5e4 acbc 0250 bfbd
00000390: 182b cb3d 24a8 f43c 6540 9d3d 8b31 133d
000003a0: 5902 94bd 34b2 eb3c 9c9f ee3d f708 7a3c
000003b0: 57ac 78bd e00a 61bd 1123 c9bd 5ea3 a7bd
000003c0: 96f1 033d a920 bdbd 6578 82bb 0035 3bbd
000003d0: 456a 303d da72 aa3d cc1d ae3d 94f5 dfbc
000003e0: 52c1 933d 1a45 8c3d bd48 f03d 463a bb3d
000003f0: ad3e b9bd 25a8 ae3d 3a49 df3d e57e 0bbe

net.convblock4.0.bias f4 [16]
-0.1054346 -0.13234274 0.09415388 0.022429883 0.024784964 0.035388637 -0.023227472 0.03447678
-0.006854127 -0.12612578 -0.073449224 -0.025484344 -0.118260704 -0.0029583664 0.043459736 0.021049097
00000000: 18ee d7bd db84 07be c0d3 c03d e0be b73c
00000010: d609 cb3c adf3 103d 8a47 bebc 8637 0d3d
00000020: 9698 e0bb 1e27 01be 8c6c 96bd 8bc4 d0bc
00000030: ab32 f2bd 27e1 41bb d602 323d 286f ac3c

net.convblock4.2.weight f4 [16]
1.0134475 1.0252718 0.9948775 0.9765205 0.9964019 1.0092431 1.0079128 0.9911195
1.0276364 0.9624949 1.0271481 0.9782648 1.0039976 0.9694259 1.0025408 1.0317513
00000000: a6b8 813f 1b3c 833f 4bb0 7e3f 3ffd 793f
00000010: 3214 7f3f e12e 813f 4903 813f 02ba 7d3f
00000020: 9789 833f 1166 763f 9779 833f 906f 7a3f
00000030: fe82 803f 4c2c 783f 4253 803f 6d10 843f

net.convblock4.2.bias f4 [16]
-0.0058593946 -0.009547119 -0.013398371 -0.0077616107 0.015074683 0.011166068 -0.0043414608 -0.0025996512
0.006183244 0.010144745 0.013145301 0.012202653 0.01947135 0.053128228 -0.0017976069 0.036596175
00000000: 2a00 c0bb 856b 1cbc d784 5bbc 1c55 febb
00000010: cefb 763c e2f1 363c d042 8ebb e95e 2abb
00000020: cf9c ca3b 2536 263c 635f 573c a3ed 473c
00000030: 6182 9f3c fc9c 593d ae9d ebba dfe5 153d

net.convblock5.0.weight f4 [16, 16, 3, 3]
-0.037801314 -0.029557867 -0.034964204 -0.06821259 -0.07407529 -0.09855939 -0.04945183 -0.02440206
0.015825411 -0.01851106 0.04342532 -0.012788685 -0.030915657 0.050050665 0.01381963 0.09718738
0.03698326 -0.01279198 0.04236283 -0.11351971 -0.07105961 -0.0420002 0.0425136 -0.012593266
0.0074109165 0.015346335 -0.08305527 0.034703955 0.0457573 -0.026585598 -0.005587678 0.025381628
-0.026393821 -0.021978935 0.0082410015 0.0026291795 -0.03378718 0.022659509 0.044110186 -0.029077578
0.053702813 -0.020449784 -0.051178493 0.04644966 -0.03654639 0.004019447 -0.112044625 -0.069482595
-0.063585445 -0.022251325 -0.08090765 0.026724845 0.06589884 -0.10827741 -0.021382809 0.028725868
0.0065002493 -0.020064153 -0.019474762 -0.009657319 -0.030143097 0.05745518 -0.015383604 -0.071480945
0.006720587 -0.027609076 -0.031296276 0.111326955 -0.063579425 0.0028989648 0.042818394 0.063785695
-0.10592605 0.064494096 -0.058091685 -0.028747894 -0.01451154 -0.033108003 0.0316525 0.068380244
0.09462202 0.108340144 0.015971765 0.068370335 0.033529576 -0.017307388 0.031118225 -0.03380575
-0.060894698 0.008691747 0.020160962 -0.029966371 -0.09545623 0.044473507 -0.094527304 -0.08246735
-0.054911513 -0.03745657 0.005868851 -0.059925888 -0.002667281 -0.05236446 -0.052127577 -0.028673932
0.037145525 0.010379139 -0.031260613 -0.013085046 0.004553632 -0.059054434 -0.120376244 0.0806512
0.032349143 0.04671826 -0.043053783 0.07103042 -0.033367254 0.0053701517 0.05151355 0.0068881297
-0.01907892 -0.029047063 0.06297905 -0.010169834 -0.037991796 -0.04193262 0.03796775 0.052481595
0.03193587 0.005525205 -0.022233305 -0.06738847 -0.045205183 0.0063223056 0.013510073 -0.07570258
-0.072352834 -0.11429225 0.08414235 -0.01728247 -0.06918382 0.0068377657 0.027794547 -0.075892724
-0.006524678 0.0139085045 0.029454982 -0.0074034715 0.002378377 0.061294697 0.020463808 -0.0025428394
0.004719854 0.044055015 -0.026052225 0.017401557 0.016594017 0.038935047 0.055904884 0.12355042
0.043120522 0.026837735 -0.049123716 -0.095092736 -0.06801798 -0.053517774 0.032368634 0.067314334
0.0159488 0.00985397 0.032387003 -0.0838605 0.017677372 0.022636546 -0.07113633 -0.007008381
0.018021299 0.057946295 0.024648258 0.022331191 0.005707104 1.8179058e-05 -0.054890733 0.05251989
0.047285277 -0.12250925 0.058872517 0.019194206 -0.06950824 -0.024037022 -0.046673536 0.03009964
-0.0028254616 -0.027870195 0.04501496 -0.0045462456 0.037233364 0.07662478 0.04097938 -0.0013352352
-0.089142196 0.049451765 -0.05060546 -0.014864271 0.023843987 -0.015052461 -0.010877465 -0.014594087
0.054090742 0.04940907 0.01134063 0.052159656 -0.0062292423 0.093506046 -0.0063440646 0.031787325
-0.038525853 -0.06400852 -0.0687493 0.060557034 0.015974663 -0.0036521698 -0.059008565 0.0111228
0.012086118 0.072364524 0.007307967 -0.033437777 0.026712565 0.052655604 0.022002509 -0.044717927
0.03671246 0.05209615 -0.10900002 -0.03236225 -0.0754512 -0.021257246 0.028154599 -0.09160418
0.027510453 -0.017284079 0.037784666 -0.044410184 -0.028092794 -0.050714128 -0.097355574 0.0190512
0.025652876 -0.04406423 -0.0862867 -0.0042078877 -0.0674596 -0.026371546 0.030077143 0.053085316
00000000: 8dd5 1abd 5723 f2bc a036 0fbd 0bb3 8bbd
00000010: c9b4 97bd 81d9 c9bd 018e 4abd d4e6 c7bc
00000020: 4ba4 813c 82a4 97bc c0de 313d a287 51bc
00000030: d542 fdbc ed01 4d3d bb6b 623c 2d0a c73d
00000040: c27b 173d 7495 51bc a684 2d3d 067d e8bd
00000050: b387 91bd 6708 2cbd be22 2e3d fc53 4ebc
00000060: 46d7 f23b 326f 7b3c e218 aabd bc25 0e3d
00000070: 026c 3b3d 0aca d9bc d718 b7bb 22ed cf3c
00000080: db37 d8bc 2b0d b4bc 4405 073c 504e 2c3b
00000090: 6d64 0abd 6fa0 b93c e2ac 343d 1a34 eebc
000000a0: 7bf7 5b3d 4e86 a7bc 8aa0 51bd 0042 3e3d
000000b0: abb1 15bd 91b5 833b a777 e5bd e44c 8ebd
000000c0: 1639 82bd 6948 b6bc e9b2 a5bd 10ee da3c
000000d0: f9f5 863d 8cc0 ddbd 002b afbc 8352 eb3c
000000e0: 0b00 d53b 945d a4bc 8989 9fbc bb39 1ebc
000000f0: a8ee f6bc 1f56 6b3d 830b 7cbc 9a64 92bd
00000100: 5f38 dc3b 6e2c e2bc 8630 00bd 63ff e33d
00000110: ee35 82bd 8ffc 3d3b 5762 2f3d 13a2 823d
00000120: c2ef d8bd 7b15 843d 8cf1 6dbd b480 ebbc
00000130: cfc1 6dbc 429c 07bd 0da6 013d f10a 8c3d
00000140: 31c9 c13d 70e1 dd3d 38d7 823c bf05 8c3d
00000150: 4f56 093d 39c8 8dbc a6eb fe3c e677 0abd
00000160: b86c 79bd d467 0e3c 9a28 a53c 097c f5bc
00000170: 8e7e c3bd da29 363d 8897 c1bd a4e4 a8bd
00000180: e5ea 60bd 0f6c 19bd 7e4f c03b d974 75bd
00000190: 8dcd 2ebb 1e7c 56bd ba83 55bd 98e5 eabc
000001a0: e825 183d 440d 2a3c 210b 00bd a962 56bc
000001b0: a236 953b 10e3 71bd d287 f6bd 752c a53d
000001c0: 8980 043d a55b 3f3d 2a59 30bd 6678 913d
000001d0: 1aac 08bd 19f8 af3b dfff 523d d2b5 e13b
000001e0: 654b 9cbc 1bf4 edbc 29fb 803d 609f 26bc
000001f0: 499d 1bbd 8ac1 2bbd 1284 1b3d f1f6 563d
00000200: 30cf 023d c70c b53b 9f22 b6bc f702 8abd
00000210: 1229 39bd 582b cf3b 5a59 5d3c f409 9bbd
00000220: b92d 94bd 0e12 eabd d352 ac3d f793 8dbc
00000230: 3fb0 8dbd 560f e03b 64b1 e33c a56d 9bbd
00000240: f7cc d5bb 7fe0 633c 934b f13c d298 f2bb
00000250: 8bde 1b3b 2610 7b3d b7a3 a73c c4a5 26bb
00000260: 01a9 9a3b 0873 343d 7a6b d5bc b68d 8e3c
00000270: 2df0 873c 5b7a 1f3d 85fc 643d 0108 fd3d
00000280: 259f 303d cfda db3c f335 49bd fbbf c2bd
00000290: 034d 8bbd 7435 5bbd f994 043d 19dc 893d
000002a0: 0fa7 823c 8c72 213c 3ca8 043d 0ebf abbd
000002b0: 23d0 903c 4770 b93c edaf 91bd 90a6 e5bb
000002c0: 67a1 933c 1859 6d3d 25eb c93c e7ef b63c
000002d0: a902 bb3b 3b7f 9837 1bd5 60bd 191f 573d
000002e0: 35ae 413d 21e6 fabd 4f24 713d 2b3d 9d3c
000002f0: 565a 8ebd 4ae9 c4bc c02c 3fbd 8593 f63c
00000300: 612b 39bb 0950 e4bc 9b61 383d acf8 94bb
00000310: 0382 183d 74ed 9c3d ffd9 273d 0f03 afba
00000320: 2f90 b6bd ef8d 4a3d ac47 4fbd 4589 73bc
00000330: 7754 c33c 999e 76bc 6537 32bc 0a1c 6fbc
00000340: 418e 5d3d 2a61 4a3d 0dce 393c 5da5 553d
00000350: ac1e ccbb 1980 bf3d dfe1 cfbb 6d33 023d
00000360: 49cd 1dbd e616 83bd 6fcc 8cbd a70a 783d
00000370: 4cdd 823c 3e59 6fbb f7b2 71bd 683c 363c
00000380: da04 463c da33 943d ac77 ef3b 0df6 08bd
00000390: 4fd4 da3c 67ad 573d 9b3e b43c 252a 37bd
000003a0: ce5f 163d c662 553d 673b dfbd 478e 04bd
000003b0: 2986 9abd ad23 aebc 79a4 e63c f99a bbbd
000003c0: 9a5d e13c 5797 8dbc 18c4 1a3d 74e7 35bd
000003d0: dc22 e6bc 9eb9 4fbd 5c62 c7bd 4311 9c3c
000003e0: fb25 d23c b27c 34bd 15b7 b0bd 52e2 89bb
000003f0: 4228 8abd 2409 d8bc 5764 f63c fd6f 593d

net.convblock5.0.bias f4 [16]
0.039704952 0.009638055 0.028311327 0.020789647 -0.07243544 0.055225667 -0.07718521 0.033145178
-0.044066075 0.06124414 -0.042393077 -0.065977946 0.011649974 0.011665003 -0.0039883605 0.051109094
00000000: a9a1 223d efe8 1d3c 28ed e73c 0d4f aa3c
00000010: 0859 94bd 4f34 623d 4813 9ebd 3dc3 073d
00000020: a17e 34bd 23db 7a3d 5da4 2dbd 721f 87bd
00000030: 88df 3e3c 921e 3f3c cbb0 82bb c557 513d

net.convblock5.2.weight f4 [16]
0.98353195 1.0215081 0.9928394 0.99732935 1.0639626 0.9962111 0.9782155 0.9916303
1.0075276 0.97012717 1.0106996 0.9841399 0.9586833 1.0490094 1.0129956 1.0268576
00000000: c0c8 7b3f c7c0 823f b92a 7e3f fa50 7f3f
00000010: ed2f 883f b107 7f3f 556c 7a3f 7cdb 7d3f
00000020: aaf6 803f 415a 783f 9b5e 813f 98f0 7b3f
00000030: 456c 753f f145 863f d7a9 813f 1270 833f

net.convblock5.2.bias f4 [16]
-0.023724016 -0.019333063 0.00767293 -0.045394193 -0.023234963 0.0069999397 0.007461203 0.0060430896
0.00931144 -0.0014855012 0.0015998038 0.04608093 -0.0029581632 0.0016623967 0.003960823 -0.012406687
00000000: de58 c2bc 5f60 9ebc 346d fb3b 43ef 39bd
00000010: 4057 bebc c05f e53b 1b7d f43b 1c05 c63b
00000020: 038f 183c 26b5 c2ba 82b0 d13a 5bbf 3c3d
00000030: bedd 41bb c7e4 d93a cbc9 813b 6b45 4bbc

net.convblock6.0.weight f4 [16, 16, 3, 3]
-0.0093986085 -0.01675334 0.06774618 -0.012791567 -0.05241219 0.043595366 0.056125294 -0.0702453
-0.07118471 0.0067626704 -0.016318519 0.086005226 -0.009475013 -0.07526635 0.004100727 0.0010974876
-0.062766455 -0.030024018 -0.07748893 0.007687964 -0.036141805 0.042453658 -0.034194555 -0.04234432
-0.037987087 -0.038367964 -0.11289582 -0.060084164 -0.053953867 0.054291446 0.017252376 -0.07802501
0.010410121 -0.013045571 -0.00503639 0.02652787 -0.06904419 0.044102874 0.021199191 0.0022196248
0.035409242 0.034237463 0.014540235 0.027957112 -0.07051841 0.049904443 -0.026429666 0.023629785
-0.038080446 0.03037005 0.051795278 0.0351053 -0.023869654 -0.044347204 0.05161224 -0.004137127
0.019356418 -0.03731978 -0.0053798156 -0.050047506 0.025856085 0.0055133826 -0.045170758 -0.026048023
0.014378932 0.066297494 -0.011963588 -0.03650486 -0.031345528 0.038494535 0.038641892 -0.008093021
-0.040327143 -0.052673355 0.00030959857 -5.1564868e-05 0.012601093 -0.07951989 -0.049259212 -0.042683106
-0.06456438 0.013983164 0.028471975 -0.032865126 -0.029176287 0.011695321 0.013748489 0.048209336
0.04463753 -0.06588366 0.11076641 0.066317685 0.028723609 0.11849898 0.13184094 0.085891634
0.053642876 0.12751165 -0.015995823 0.009035445 -0.01355377 0.0048458395 0.041472692 -0.061901316
-0.036925137 -0.104891285 -0.05843419 -0.077347875 0.032941297 -0.03190859 0.020038716 0.0011623062
0.016487923 0.010655659 -0.06545775 -0.09670975 -0.008896041 0.0030582007 -0.04512361 0.017049914
-0.024655215 0.0027030618 0.025978347 -0.07055755 0.011742713 -0.022417052 0.0018379802 -0.046792824
0.022896992 -0.05098686 -0.04255435 0.01319234 -0.0792517 -0.020110393 -0.04899626 0.02830349
0.03607473 -0.088490866 -0.026168508 -0.05928641 -0.035277292 -0.012826054 0.03383514 -0.045810923
0.035736904 -0.010851296 -0.051948022 -0.058303118 -0.044719376 0.05761008 -0.07840112 0.0011849096
0.049404543 -0.030959424 0.0032430843 -0.07219161 -0.016216839 -0.009992955 -0.016891187 -0.060475964
-0.035299372 -0.037656225 0.007148863 0.02476133 0.058004584 -0.01998858 0.049419943 -0.0554914
0.013083857 -0.03747056 0.025184983 0.010752771 -0.028028514 0.1481668 -0.04829932 -0.026376853
0.013475728 0.008424543 -0.051936284 0.011894655 0.0673442 -0.06679557 -0.024657022 -0.11079081
0.0022080455 0.022375781 -0.13301167 -0.052631352 -0.0048805536 0.01911365 0.018105831 0.0245402
0.060344044 0.023826115 0.031968478 0.08737773 -0.07494798 -0.060376592 -0.034742363 -0.003291727
-0.06779293 -0.07065432 0.008237462 -0.07054334 -0.067761734 -0.08758879 -0.048069466 -0.078360476
0.042511787 0.059613932 0.0006204018 0.06811703 -0.012429609 -0.10898298 -0.026124671 -0.007912415
-0.036945973 0.036651745 0.016254906 0.05215003 -0.056321494 -0.04479237 -0.00030029623 0.018627118
0.039759655 0.0546157 0.05083252 0.04672587 0.032189216 0.017402515 0.02899752 -0.10279427
0.031228337 -0.0122997025 -0.06666227 -0.018164143 0.07944896 0.025308426 0.105653204 -0.016739937
-0.0006847212 0.061602414 -0.07027705 0.11201848 0.06061615 0.038904283 0.035168078 0.01834334
0.0015578471 -0.033026848 0.03417257 -0.06742303 -0.004680968 -0.09230122 -0.09802938 -0.07810616
00000000: 9ffc 19bc 4d3e 89bc 82be 8a3d b893 51bc
00000010: 2aae 56bd 0e91 323d a3e3 653d c5dc 8fbd
00000020: 4ac9 91bd 6499 dd3b 6aae 85bc 8223 b03d
00000030: 163d 1bbc 3e25 9abd 645f 863b 93d9 8f3a
00000040: b38b 80bd eef4 f5bc 84b2 9ebd 51eb fb3b
00000050: 6e09 14bd e3e3 2d3d 970f 0cbd 3d71 2dbd
00000060: 5998 1bbd ba27 1dbd ec35 e7bd d01a 76bd
00000070: bbfe 5cbd b560 5e3d db54 8d3c 94cb 9fbd
00000080: 368f 2a3c 17bd 55bc 4d08 a5bb fa50 d93c
00000090: 0a67 8dbd 37a5 343d eda9 ad3c 2077 113b
000000a0: 4809 113d 953c 0c3d 2a3a 6e3c 5006 e53c
000000b0: f56b 90bd 9a68 4c3d 0783 d8bc 4093 c13c
000000c0: 3efa 1bbd 9cca f83c 4927 543d 93ca 0f3d
000000d0: 4b8a c3bc 6aa5 35bd 5b67 533d bd90 87bb
000000e0: 5a91 9e3c a0dc 18bd 2a49 b0bb 9dfe 4cbd
000000f0: 24d0 d33c 9ba9 b43b f904 39bd aa62 d5bc
00000100: 9d95 6b3c fbc6 873d ed02 44bc 1f86 15bd
00000110: 2b64 00bd 72ac 1d3d f646 1e3d 9798 04bc
00000120: 132e 25bd 04c0 57bd 9e51 a239 5b47 58b8
00000130: d174 4e3c 53db a2bd 07c4 49bd 7bd4 2ebd
00000140: 543a 84bd a419 653c 0f3e e93c 959d 06bd
00000150: 1c03 efbc bb9d 3f3c 5841 613c 2777 453d
00000160: d8d5 363d 03ee 86bd 80d9 e23d 91d1 873d
00000170: c64d eb3c 98af f23d 5001 073e f4e7 af3d
00000180: a2b8 5b3d 6a92 023e ac09 83bc 6709 143c
00000190: a210 5ebc d9c9 9e3b 45df 293d 3c8c 7dbd
000001a0: d03e 17bd 3ed1 d6bd b058 6fbd 9068 9ebd
000001b0: 74ed 063d 95b2 02bd 3c28 a43c 8658 983a
000001c0: ae11 873c 1395 2e3c b60e 86bd c30f c6bd
000001d0: b3c0 11bc 186c 483b 89d3 38bd 43ac 8b3c
000001e0: bcf9 c9bc da25 313b 8bd0 d43c 7a80 90bd
000001f0: 8264 403c f7a3 b7bc 62e8 f03a d5a9 3fbd
00000200: 7992 bb3c 99d7 50bd 784d 2ebd af24 583c
00000210: b74e a2bd 8dbe a4bc 4db0 48bd b8dc e73c
00000220: 19c3 133d b33a b5bd 575f d6bc 4fd6 72bd
00000230: ec7e 10bd 5f24 52bc b796 0a3d 3ca4 3bbd
00000240: dc60 123d a2c9 31bc 73c7 54bd 40cf 6ebd
00000250: aa2b 37bd 8cf8 6b3d c490 a0bd f84e 9b3a
00000260: 6b5c 4a3d 9e9e fdbc ed89 543b 32d9 93bd
00000270: 2dd9 84bc 7eb9 23bc 635f 8abc a5b5 77bd
00000280: 1396 10bd 6a3d 1abd 0241 ea3b 46d8 ca3c
00000290: 3796 6d3d 17bf a3bc 916c 4a3d f34a 63bd
000002a0: ac5d 563c bb7a 19bd bd50 ce3c 642c 303c
000002b0: 0e9c e5bc 0ab9 173e 82d5 45bd 4514 d8bc
000002c0: 4dc9 5c3c 1807 0a3c 24bb 54bd cde1 423c
000002d0: c2eb 893d 1ecc 88bd 86fd c9bc 4be6 e2bd
000002e0: dbb4 103b 6a4d b73c 3634 08be f993 57bd
000002f0: 0ded 9fbb 3b94 9c3c ae52 943c 8808 c93c
00000300: 512b 773d fc2e c33c 61f1 023d 18f3 b23d
00000310: 547e 99bd 724d 77bd 024e 0ebd 04ba 57bb
00000320: 05d7 8abd 36b3 90bd 6bf6 063c 0779 90bd
00000330: aac6 8abd c061 b3bd 7de4 44bd 757b a0bd
00000340: d720 2e3d bd2d 743d 76a2 223a f180 8b3d
00000350: 8fa5 4bbc 7832 dfbd 6803 d6bc 13a3 01bc
00000360: a954 17bd 2420 163d 0229 853c 459b 553d
00000370: 5eb1 66bd 3478 37bd 1471 9db9 e697 983c
00000380: 05db 223d b6b4 5f3d c335 503d a063 3f3d
00000390: d7d8 033d b88f 8e3c 358c ed3c cd85 d2bd
000003a0: 92d2 ff3c b184 49bc 3a86 88bd f8cc 94bc
000003b0: 23b6 a23d 9e53 cf3c b560 d83d 3122 89bc
000003c0: dd7e 33ba d052 7c3d 6aed 8fbd f269 e53d
000003d0: a448 783d 195a 1f3d 670c 103d c644 963c
000003e0: ad30 cc3a 2947 07bd 89f8 0b3d 1615 8abd
000003f0: ce62 99bb 6c08 bdbd a1c3 c8bd 1ff6 9fbd

net.convblock6.0.bias f4 [16]
-0.05937636 -0.05187695 -0.06871505 -0.03879773 -0.05224108 0.014404927 -0.056112863 -0.014751974
-0.070556544 0.009104105 -0.08648248 -0.042221624 -0.03714488 0.044023912 0.051404506 -0.019849991
00000000: a034 73bd ed7c 54bd 7aba 8cbd 5eea 1ebd
00000010: befa 55bd a502 6c3c 9ad6 65bd 43b2 71bc
00000020: f37f 90bd 6229 153c ba1d b1bd 95f0 2cbd
00000030: 3b25 18bd 6b52 343d 888d 523d 739c a2bc

net.convblock6.2.weight f4 [16]
0.96759236 0.9683361 0.99534744 1.057293 0.96114844 1.0166463 1.0058637 0.94979
1.0343391 1.0263478 0.9984692 1.0259969 1.0837969 1.0345871 0.9503133 0.9460736
00000000: 22b4 773f e0e4 773f 17cf 7e3f 6155 873f
00000010: d30d 763f 7721 823f 24c0 803f 7025 733f
00000020: 3965 843f 5d5f 833f ad9b 7f3f de53 833f
00000030: dbb9 8a3f 5a6d 843f bc47 733f e131 723f

net.convblock6.2.bias f4 [16]
-0.051455796 -0.0069135823 -0.053803284 -0.023332322 -0.075568646 -0.06444536 -0.02601179 -0.0043256306
-0.033648532 -0.03317692 -0.10572051 -0.026414296 -0.06409991 -0.03203084 -0.07681883 -0.06174825
00000000: 50c3 52bd 558b e2bb d560 5cbd 6d23 bfbc
00000010: bcc3 9abd eefb 83bd ad16 d5bc 05be 8dbb
00000020: 0bd3 09bd 86e4 07bd ff83 d8bd cb62 d8bc
00000030: d046 83bd c532 03bd 3153 9dbd bceb 7cbd

net.convblock7.0.weight f4 [8, 16, 1, 1]
0.1951604 0.08603802 -0.19890538 0.046039987 0.03818927 0.18236046 0.02108995 -0.12601282
-0.0987191 -0.0943015 0.083157994 -0.13098718 -0.0054235174 0.11579012 -0.13834342 -0.003975294
0.17811778 0.17701538 0.047268976 -0.083830915 -0.080171704 0.094992906 -0.18850905 0.19549452
-0.21799594 -0.24438079 -0.06750754 -0.29992825 -0.16094449 -0.1961223 -0.17318165 0.12835097
0.030675313 -0.017181532 -0.011073715 0.06946463 0.014843164 0.10793485 -0.19595808 -0.12300161
0.26598832 0.08851056 -0.057319492 0.025101112 -0.11797671 -0.20383345 -0.1807414 -0.10385395
-0.028587513 0.22694427 -0.1798748 -0.07029489 0.067968264 -0.07488301 0.0572703 -0.094232924
-0.013400291 -0.21394654 -0.04970594 -0.13302091 -0.33228892 -0.013678979 0.24380161 -0.080262095
0.047471568 0.05601272 0.05672069 -0.054131985 -0.021820532 -0.12235269 0.21166426 0.17279658
0.08056098 -0.108059205 0.1980744 -0.0055953455 -0.042840064 0.14704292 -0.15601508 0.15791216
-0.2716047 0.16530173 0.063309655 0.14586265 0.04424731 0.1509194 0.2610326 0.23489021
0.053432193 0.07719619 -0.1419735 0.20098521 -0.08094254 0.19425012 0.0033219603 -0.010583578
-0.08190793 -0.22318767 0.20650047 -0.33920258 -0.14168923 0.23581769 0.15709648 -0.26785833
-0.015750488 0.21271932 0.19304562 0.014890593 0.027486008 0.05906733 -0.1308044 0.2027328
-0.04925668 0.04805897 -0.012034545 0.06515053 -0.20920192 -0.21536772 -0.036270045 -0.06714807
0.035444826 0.02916976 0.10320731 0.25967368 0.060017206 0.2211646 -0.10677604 0.1216119
00000000: 21d8 473e b434 b03d daad 4bbe 6d94 3c3d
00000010: 5a6c 1c3d b3bc 3a3e d5c4 ac3c 8109 01be
00000020: 3d2d cabd 2521 c1bd bd4e aa3d 8121 06be
00000030: c3b7 b1bb 5f23 ed3d e6a9 0dbe 2f43 82bb
00000040: 8264 363e 8543 353e 1d9d 413d 8baf abbd
00000050: 1031 a4bd a48b c23d 8408 41be b72f 483e
00000060: 543a 5fbe f53e 7abe 6541 8abd 3290 99be
00000070: a2ce 24be 49d4 48be 8856 31be 706e 033e
00000080: cb4a fb3c 49c0 8cbc 876e 35bc 7943 8e3d
00000090: be30 733c f20c dd3d 3ca9 48be 45e8 fbbd
000000a0: 9f2f 883e 0645 b53d d8c7 6abd d9a0 cd3c
000000b0: c69d f1bd b7b9 50be 4614 39be 61b1 d4bd
000000c0: 5c30 eabc 1464 683e 1931 38be c4f6 8fbd
000000d0: f232 8b3d 435c 99bd 4394 6a3d 31fd c0bd
000000e0: e58c 5bbc cd14 5bbe 7598 4bbd a236 08be
000000f0: c621 aabe cc1d 60bc 21a7 793e 7460 a4bd
00000100: 8c71 423d 986d 653d f453 683d 80b9 5dbd
00000110: f9c0 b2bc 0c94 fabd 84be 583e 96f1 303e
00000120: 28fd a43d 254e ddbd 04d4 4a3e 2959 b7bb
00000130: 1079 2fbd 6b92 163e 6bc2 1fbe bab3 213e
00000140: c50f 8bbe db44 293e 7ea8 813d 055d 153e
00000150: ab3c 353d 9d8a 1a3e 11a6 853e 0f87 703e
00000160: b7db 5a3d 0919 9e3d 8061 11be 11cf 4d3e
00000170: 34c5 a5bd 81e9 463e 3fb5 593b be66 2dbc
00000180: 58bf a7bd 4f8b 64be dc74 533e f6ab adbe
00000190: fb16 11be 317a 713e e6dd 203e ba24 89be
000001a0: 2b07 81bc 18d3 593e c0ad 453e acf7 733c
000001b0: 562a e13c 96f0 713d 97f1 05be 3099 4f3e
000001c0: 5fc1 49bd 7cd9 443d 8a2c 45bc a46d 853d
000001d0: 0739 56be 5b89 5cbe e68f 14bd ed84 89bd
000001e0: 982e 113d 6cf5 ee3c 5b5e d33d f3f3 843e
000001f0: 9ad4 753d f978 623e 65ad dabd a90f f93d

net.convblock7.0.bias f4 [8]
-0.2431606 0.12181036 0.10025375 0.01901763 -0.15918829 -0.12659937 -0.09506127 0.2278444
00000000: 18ff 78be b677 f93d d751 cd3d dcca 9b3c
00000010: 4102 23be 44a3 01be 7caf c2bd 0b50 693e

net.convblock7.2.weight f4 [8]
0.9719461 1.0294547 0.9106744 0.9991849 1.0031544 0.9705324 1.0239618 1.0154301
00000000: 76d1 783f 2cc5 833f f521 693f 95ca 7f3f
00000010: 5d67 803f d074 783f 2e11 833f 9df9 813f

net.convblock7.2.bias f4 [8]
0.030522158 0.007914197 0.0049286685 -0.0014766654 -0.059582908 -0.08949971 -0.11856458 -0.02157284
00000000: 9b09 fa3c 8caa 013c ab80 a13b ab8c c1ba
00000010: 350d 74bd a04b b7bd fdd1 f2bd 86b9 b0bc

net.convblock8.0.weight f4 [10, 8, 3, 3]
0.0152711775 -0.11557647 -0.06272643 -0.049315713 0.043118913 0.028779507 -0.1015753 -0.09161488
0.09636832 -0.05756316 -0.025456326 0.08309633 0.021916347 -0.028073201 0.04118598 -0.11656984
-0.0104997 0.028930126 0.077283226 0.0942734 0.15283555 0.09193275 0.008322281 0.16980918
-0.04147879 0.08868064 0.036877036 -0.050078906 -0.071397446 0.038963757 -0.14308672 -0.11070565
-0.043065034 -0.047511388 -0.014856508 -0.10301983 -0.032151442 -0.041817453 -0.07143611 -0.01806386
0.09300871 -0.15939112 -0.0067842 -0.001598482 0.078161724 -0.013786883 0.026679453 -0.0067241862
-0.08852622 0.0317353 -0.0033012307 -0.109648675 0.09572378 -0.10550381 0.016129127 0.055322137
-0.08141484 0.061607253 -0.011611603 0.047294147 0.09801928 0.08846892 0.093235485 -0.004523852
-0.03135604 -0.089231394 0.035603836 -0.09171335 -0.15541184 -0.033809084 0.0016108691 0.054640185
0.09344049 -0.015000314 0.07216124 -0.006214655 -0.053643465 0.06403676 0.014296937 0.010651601
-0.015103595 -0.026060296 0.08803024 0.119096294 0.016622959 -0.027472388 -0.0070455177 -0.034911733
0.10283631 0.084216855 0.091624565 -0.06543172 0.042587325 0.035530318 0.014924699 0.017165959
-0.010945213 -0.10930496 0.040910855 0.02225874 -0.024944788 -0.009840809 -0.045670938 0.033459272
0.021700997 0.10218356 0.101748064 0.005662686 0.07544104 0.1506404 0.09227283 0.08765745
0.11090479 0.015651343 0.026553713 0.048786853 0.15424582 0.05598465 -0.016046528 -0.11896351
0.03267756 0.011797349 -0.005111271 0.034433737 0.046047125 -0.022027105 0.06889148 0.01989583
0.0041063484 -0.02741586 -0.09365958 0.026857266 -0.01268567 -0.10433281 -0.036091786 0.05620784
-0.041244823 -0.03411622 0.1094189 -0.036285013 0.13021651 -0.068824545 -0.01036069 -0.06558739
0.06464581 0.02318268 0.051769923 -0.073234774 -0.04233885 0.06309344 -0.07206196 -0.018017324
0.084309876 0.0073601245 0.0624465 0.07887084 0.044081327 -0.011412293 -0.018864796 -0.010592193
-0.039342362 -0.077457204 0.01013014 0.044010915 -0.04182891 0.051461797 0.03666291 -0.07506424
-0.028385941 0.022261262 -0.008077001 -0.102205925 0.0315321 -0.06871915 -0.02752155 0.08220413
-0.049279936 0.0022560852 0.044768255 -0.11904594 -0.0702167 -0.04420945 -0.00095970597 0.06928725
0.04822338 -0.042709745 -0.057358522 -0.09922363 -0.0048564696 0.005337291 0.013899305 -0.076409556
-0.062649 -0.053072926 -0.12617512 -0.045851883 0.026663424 0.028901393 0.1288878 0.07332681
0.11219064 -0.04174841 -0.08780944 0.006981457 0.02267834 -0.027944626 -0.034383327 -0.063220255
0.036517836 0.071799584 0.13467938 -0.13213457 0.12063527 -0.1474606 0.010523722 0.0108547015
-0.10944259 0.07938272 -0.01918524 -0.010392741 0.065991305 -0.05504047 0.10065234 -0.008636979
-0.0031261903 0.08690549 0.08544315 0.058266483 -0.029616607 0.008283529 -0.0054604164 0.047799826
0.018245818 -0.030674255 -0.024780195 -0.015172484 -0.12556571 -0.03247756 0.037453093 -0.08418618
0.066228285 0.050599612 0.011405982 0.01931183 0.025930231 0.04615874 0.04915286 0.0032266094
0.07507603 -0.051457457 0.036667425 -0.04789589 -0.14674897 -0.13194689 -0.08048915 -0.06288167
00000000: f633 7a3c 5bb3 ecbd b776 80bd 46ff 49bd
00000010: 759d 303d 00c3 eb3c b606 d0bd 95a0 bbbd
00000020: c15c c53d 59c7 6bbd c989 d0bc 692e aa3d
00000030: e989 b33c c5f9 e5bc a1b2 283d 2bbc eebd
00000040: ef06 2cbc dffe ec3c ab46 9e3d 6a12 c13d
00000050: ec80 1c3e 3d47 bc3d 2d5a 083c 75e2 2d3e
00000060: aae5 29bd 329e b53d 600c 173d 8a1f 4dbd
00000070: d338 92bd 7698 1f3d 5385 12be a5b9 e2bd
00000080: f664 30bd 4d9b 42bd b668 73bc 10fc d2bd
00000090: 3bb1 03bd c748 2bbd 184d 92bd a9fa 93bc
000000a0: 5a7b be3d 6d37 23be ff4d debb 2884 d1ba
000000b0: 4113 a03d 61e2 61bc de8e da3c 9056 dcbb
000000c0: 3c4d b5bd e0fc 013d 7659 58bb 7c8f e0bd
000000d0: d40a c43d 6212 d8bd 3b21 843c 7799 623d
000000e0: d3bc a6bd e357 7c3d 983e 3ebc 82b7 413d
000000f0: 55be c83d 312f b53d 3ff2 be3d d23c 94bb
00000100: 316f 00bd f3be b6bd 54d5 113d 35d4 bbbd
00000110: 4824 1fbe 657b 0abd cc23 d33a 63ce 5f3d
00000120: ba5d bf3d e1c3 75bc 46c9 933d 4ea4 cbbb
00000130: 40b9 5bbd b425 833d b33d 6a3c 0d84 2e3c
00000140: 1275 77bc 677c d5bc 3349 b43d c2e8 f33d
00000150: df2c 883c c60d e1bc 16de e6bb 9bff 0ebd
00000160: d89b d23d e379 ac3d a9a5 bb3d 1101 86bd
00000170: 0c70 2e3d 3d88 113d ba86 743c a09f 8c3c
00000180: 8d53 33bc 47db dfbd 2492 273d f657 b63c
00000190: 0359 ccbc 583b 21bc 7311 3bbd 970c 093d
000001a0: 4ac6 b13c 9d45 d13d 4a61 d03d 0e8e b93b
000001b0: d580 9a3d 7a41 1a3e 8af9 bc3d c085 b33d
000001c0: 0d22 e33d 3f37 803c 2c87 d93c b9d4 473d
000001d0: 9ef2 1d3e 2950 653d 0274 83bc 24a3 f3bd
000001e0: e8d8 053d ab49 413c 737c a7bb 640a 0d3d
000001f0: e99b 3c3d 3072 b4bc fa16 8d3d 94fc a23c
00000200: 8c8e 863b 3a97 e0bc 98d0 bfbd c503 dc3c
00000210: 8ed7 4fbc 71ac d5bd fbd4 13bd 313a 663d
00000220: 55f0 28bd 73bd 0bbd 0417 e03d 989f 14bd
00000230: 7a57 053e e2f3 8cbd e2bf 29bc ae52 86bd
00000240: 0665 843d 9be9 bd3c b30c 543d 1dfc 95bd
00000250: 816b 2dbd 2237 813d 3995 93bd 1199 93bc
00000260: a8aa ac3d 332d f13b e7c7 7f3d 0987 a13d
00000270: 9f8e 343d a0fa 3abc 588a 9abc e18a 2dbc
00000280: 7525 21bd e2a1 9ebd e3f8 253c ca44 343d
00000290: cb54 2bbd 9bc9 523d d92b 163d 48bb 99bd
000002a0: a289 e8bc 405d b63c 6655 04bc 5751 d1bd
000002b0: ce27 013d a0bc 8cbd e074 e1bc a45a a83d
000002c0: c2d9 49bd d4da 133b eb5e 373d 5cce f3bd
000002d0: c6cd 8fbd f814 35bd c794 7bba 79e6 8d3d
000002e0: e185 453d 6af0 2ebd c5f0 6abd c235 cbbd
000002f0: 0523 9fbb 71e4 ae3b e9b9 633c 9d7c 9cbd
00000300: 1e4e 80bd ff62 59bd 0d34 01be 2fcf 3bbd
00000310: 416d da3c 9dc2 ec3c 2afb 033e 5e2c 963d
00000320: 35c4 e53d 6100 2bbd 70d5 b3bd b5c4 e43b
00000330: edc7 b93c 21ec e4bc 88d5 0cbd 9f79 81bd
00000340: ba93 153d a90b 933d 64e9 093e 494e 07be
00000350: a00f f73d e9ff 16be b06b 2c3c ebd7 313c
00000360: 7023 e0bd 6893 a23d 5d2a 9dbc 5146 2abc
00000370: 7326 873d 1e72 61bd d022 ce3d 1e82 0dbc
00000380: c5e0 4cbb 81fb b13d d1fc ae3d d6a8 6e3d
00000390: 879e f2bc a4b7 073c 4bed b2bb c0c9 433d
000003a0: 4178 953c 9348 fbbc d6ff cabc 0396 78bc
000003b0: 4c94 00be 3107 05bd 6a68 193d ce69 acbd
000003c0: b2a2 873d 8a41 4f3d 28e0 3a3c d833 9e3c
000003d0: a36b d43c f210 3d3d 8254 493d 8675 533b
000003e0: 76c1 993d 0ec5 52bd 9530 163d 7b2e 44bd
000003f0: 5d45 16be 161d 07be 7fd7 a4bd 1bc8 80bd

net.convblock8.0.bias f4 [10]
0.044839095 0.016783541 0.059545536 -0.06415909 0.054930586 -0.008927897 0.063452795 0.16409986
0.037230756 0.015514589
00000000: 33a9 373d a37d 893c 05e6 733d d765 83bd
00000010: e5fe 603d 5046 12bc 8af3 813d cb09 283e
00000020: 477f 183d e730 7e3c

net.convblock8.2.weight f4 [10]
0.91829497 0.933596 1.0272868 0.97393477 1.0640446 1.043424 1.0300024 0.9790407
0.97553664 1.0007918
00000000: 6115 6b3f 2600 6f3f 227e 833f ca53 793f
00000010: 9d32 883f eb8e 853f 1ed7 833f 69a2 7a3f
00000020: c5bc 793f f219 803f

net.convblock8.2.bias f4 [10]
-0.013918637 0.011341429 -0.035875224 -0.04367487 -0.021937376 -0.059188224 -0.022405373 0.0070082406
0.018980956 -0.082409784
00000000: ff0a 64bc 67d1 393c e6f1 12bd 6ce4 32bd
00000010: 03b6 b3bc 5a6f 72bd 798b b7bc 62a5 e53b
00000020: f37d 9b3c 76c6 a8bd
