S5/output/csv/version_3/checkpoints/epoch=4-step=275.ckpt (torch, 191717 bytes, 188 tensors)

net.model.convblock1.0.weight f4 [10, 1, 3, 3]
0	0xbd38e369	-0.04513875
1	0x3dce7dbf	0.10082578
2	0xbd815ab2	-0.06316127
3	0x3e8d089d	0.27545634
4	0x3e33e271	0.1756685
5	0xbd4c304f	-0.04985076
6	0xbe7ede7b	-0.24889557
7	0xbe0bbde3	-0.13646655
8	0x3e075aae	0.13218185
9	0xbeb991a3	-0.36243924
10	0x3df8b3f1	0.12143696
11	0x3de02ae2	0.10945679
12	0xbdf92456	-0.12165134
13	0xbd9960ab	-0.07489141
14	0x3e1befc4	0.15228182
15	0x3e3440bb	0.17602818
16	0x3e8b7c39	0.27243212
17	0xbdd24242	-0.10266544
18	0xbe6893b1	-0.2271259
19	0xbe5ad7f2	-0.21371439
20	0x3e7d8c2f	0.24760507
21	0x3e86291f	0.26203248
22	0xbe933fd8	-0.28759646
23	0xbeba4460	-0.3638029
24	0x3cd0f1e9	0.025505977
25	0x3e2235ae	0.1584079
26	0xbe1c5cc9	-0.1526977
27	0xbdae10ad	-0.084992744
28	0xbdf38d94	-0.11892238
29	0xbe6374c6	-0.22212514
30	0x3cd11948	0.02552475
31	0xbd7b7b56	-0.06139692
32	0xbe7bc4c8	-0.24586785
33	0xbe7dbfc0	-0.24780178
34	0xbe16d5c6	-0.14729986
35	0x3e9ac3b4	0.30227435
36	0xbe5130e3	-0.20428805
37	0xbe337ffc	-0.17529291
38	0x3e61fd39	0.22069253
39	0xbd44c5e2	-0.04804028
40	0xbe3438a6	-0.17599735
41	0xbeb7b336	-0.35878915
42	0x3e988e24	0.29795945
43	0xbdb2771d	-0.08714125
44	0x3e0b8ed1	0.13628699
45	0x3d4cb340	0.049975634
46	0xbe3ad0a1	-0.18243648
47	0x3d50dcfc	0.050991997
48	0x3daafccb	0.08348998
49	0x3e4fc940	0.20291615
50	0xbe3aa896	-0.18228373
51	0x3bf6fccb	0.0075374595
52	0xbe0ba75c	-0.13638061
53	0x3e828d20	0.25498295
54	0x3de0dc3a	0.10979505
55	0xbe864d77	-0.26230976
56	0xbd850c5d	-0.06496499
57	0x3dac8dd1	0.08425487
58	0x3e69a1d4	0.22815639
59	0x3d3d02a4	0.046145096
60	0xbe94c468	-0.29056096
61	0xbd64e748	-0.05588463
62	0xbde3e1c2	-0.11127044
63	0x3e654bb1	0.22392155
64	0xbe793e23	-0.2434011
65	0xbe67e3f7	-0.22645555
66	0x3e6a9d92	0.22911671
67	0xbe2ba972	-0.16763857
68	0xbdff5eed	-0.124692775
69	0xbcaa0514	-0.020754375
70	0x3e985421	0.29751685
71	0x3de33cc0	0.110955715
72	0xbdd4b744	-0.10386518
73	0xbe9d5277	-0.30726978
74	0xbd84bbf2	-0.0648116
75	0x3e9a569a	0.30144197
76	0x3e37940e	0.17927572
77	0x3e598ae8	0.21244395
78	0x3eadef11	0.33971456
79	0x3c9476c4	0.018123038
80	0xbc92dde2	-0.017928068
81	0xbe60d43e	-0.21955964
82	0x3db35343	0.08756115
83	0xbd98362f	-0.0743221
84	0xbe8834fa	-0.26602918
85	0xba28d8d6	-0.00064410025
86	0x3dc5517f	0.09634685
87	0xbd6198c4	-0.05507733
88	0xbe7d1024	-0.24713188
89	0xbe6bf46a	-0.23042455

net.model.convblock1.0.bias f4 [10]
0	0xbe7b1e49	-0.24523272
1	0x3dfbc288	0.12292963
2	0x3e8eeefc	0.27916706
3	0x3eb26662	0.34843737
4	0x3e3ad45b	0.1824507
5	0xbeb00ebf	-0.3438625
6	0x3d00fc3b	0.031490546
7	0xbd90a244	-0.070622
8	0x3bde9ef2	0.00679385
9	0x3c3405c6	0.010987705

net.model.convblock1.2.weight f4 [10]
0	0x3f7244ed	0.9463642
1	0x3f858f66	1.0434387
2	0x3f800abf	1.000328
3	0x3f81e75e	1.0148733
4	0x3f81a495	1.0128351
5	0x3f6e9a7d	0.9320448
6	0x3f711ed8	0.9418769
7	0x3f7f838b	0.99810094
8	0x3f85c448	1.0450525
9	0x3f851518	1.0397062

net.model.convblock1.2.bias f4 [10]
0	0xbdeff5aa	-0.117167786
1	0xbcd95bba	-0.026532996
2	0xbcbca27f	-0.023026703
3	0x3cc92486	0.024553549
4	0xbd464a60	-0.048410773
5	0xbe0aba15	-0.13547547
6	0xbd97af3f	-0.074064724
7	0xbd5d7657	-0.054067936
8	0xbc221728	-0.009893216
9	0xbd2aafc8	-0.041671544

net.model.convblock1.2.running_mean f4 [10]
0	0x3d0f07c8	0.03491953
1	0x3e34ec91	0.17668368
2	0x3ed1d776	0.40984696
3	0x3f08d692	0.5345241
4	0x3e9d57fd	0.30731192
5	0x3c2db13e	0.01060134
6	0x3df4e3e6	0.11957531
7	0x3dc03da2	0.093867555
8	0x3e5eaded	0.21746035
9	0x3e894b33	0.26815185

net.model.convblock1.2.running_var f4 [10]
0	0x3c8ffd02	0.017576698
1	0x3e05ebf4	0.1307829
2	0x3d4ce0c9	0.05001906
3	0x3dae1e6b	0.085018955
4	0x3d156033	0.036468696
5	0x3b46e665	0.0030349728
6	0x3c0412a2	0.008061083
7	0x3d94df12	0.0726911
8	0x3e93a89d	0.2883958
9	0x3cea2272	0.028580878

net.model.convblock2.0.weight f4 [16, 10, 3, 3]
0	0x3dad1bc7	0.08452564
1	0x3d1364f2	0.03598494
2	0xbdfc6459	-0.12323827
3	0xbde7016b	-0.11279567
4	0x3d2059c8	0.039148122
5	0xbd19cd18	-0.03754911
6	0xbd8fbdc2	-0.07018615
7	0xbcd31a80	-0.025769472
8	0x3cbcbeb1	0.023040147
9	0x3d9466fc	0.07246205
10	0xbc0c1fd6	-0.008552512
11	0xbcd63526	-0.02614839
12	0xbcae74ba	-0.021295894
13	0xbd5cbdb3	-0.05389185
14	0x3d194eb6	0.03742858
15	0x3d25a902	0.04044438
16	0x3d3b642d	0.045749832
17	0x3d8fe049	0.07025201
18	0xbc75ffbe	-0.015014587
19	0x3d0b9a84	0.034082904
20	0xbd36a3ba	-0.044589736
21	0xbcc29ffc	-0.023757927
22	0xbda3212d	-0.07965312
23	0x3d5f24e9	0.05447856
24	0xbb340d23	-0.002747365
25	0xbbde558e	-0.0067851013
26	0x3d1e3c10	0.0386315
27	0xbd08c2b5	-0.033388812
28	0xbcbfa1a1	-0.0233925
29	0xba3ceb53	-0.0007206697
30	0x3da96727	0.08271628
31	0x3ab3a662	0.0013706202
32	0x3cc8aaa9	0.02449544
33	0xbcb88ad8	-0.022527143
34	0x3d275ac6	0.040858053
35	0xbd40d868	-0.04708138
36	0xbba65a45	-0.005076679
37	0xbbce0922	-0.00628771
38	0xbc035b23	-0.008017334
39	0x3dc832c5	0.097753085
40	0xbcb274da	-0.021784235
41	0x3cec6ee7	0.028861476
42	0xbbb3e7c7	-0.0054902765
43	0x3d383b45	0.0449784
44	0xbd00e499	-0.031468008
45	0xbcc54c8a	-0.024084348
46	0xbd32a1b1	-0.043611232
47	0xbdad003d	-0.08447311
48	0xbd8b09b9	-0.06788964
49	0xbd92d5d8	-0.07169694
50	0xbd9e81cc	-0.077396005
51	0x3d494a94	0.04914339
52	0xbd1f3271	-0.038866464
53	0x3d27de7b	0.04098366
54	0xb99032ae	-0.0002750358
55	0xbbacf7f0	-0.00527858
56	0xbdc8e92e	-0.098101005
57	0x3dbe6f22	0.09298541
58	0xbdc1a84f	-0.094559304
59	0x3b98d832	0.0046644444
60	0xbc08e284	-0.008354787
61	0xbd2cff7e	-0.042235844
62	0xbe056e96	-0.13030466
63	0xbc9b7e7e	-0.018981215
64	0xbd8afa9f	-0.067860834
65	0xbc9b6496	-0.018968862
66	0xbd859c22	-0.065239206
67	0xbd9deea5	-0.077115335
68	0xbcd1649c	-0.02556067
69	0xbdb20124	-0.08691624
70	0x3db1dc0e	0.0868455
71	0x3e0a9755	0.13534291
72	0xbdb5a85b	-0.08870002
73	0xbad66fa6	-0.0016360178
74	0x3d6d2537	0.05789682
75	0xbc6c61cb	-0.014427613
76	0x3d521f36	0.051299296
77	0x3dd8ab09	0.10579497
78	0xbc2f22df	-0.010689466
79	0xbcc8a126	-0.024490904
80	0xbc9e227a	-0.01930355
81	0x3dfabb43	0.122427486
82	0xbc040e47	-0.008060045
83	0xbd7e1acd	-0.062037278
84	0xbc09c3d0	-0.008408502
85	0x3dc18889	0.0944987
86	0x3d0664fd	0.032811154
87	0x3d686d51	0.056744877
88	0xbd9ea3a4	-0.07746056
89	0xbdbd4654	-0.0924193
90	0xbd051e1f	-0.03249943
91	0x3d39fa34	0.045404628
92	0x3d33f862	0.04393805
93	0xbcdcb4b0	-0.026941627
94	0x3b6adbe9	0.0035836643
95	0x3b3ebd4b	0.0029104527
96	0xbc8d2169	-0.017227845
97	0x3da7c431	0.081917174
98	0x3db978c2	0.09056236
99	0xbc182cca	-0.009288022
100	0xbd172e67	-0.036909487
101	0x3d2e92ca	0.042620458
102	0x3d725197	0.05915984
103	0x3cf16882	0.029468779
104	0xbd44f88e	-0.048088603
105	0x3cf09728	0.029368952
106	0xbe131d22	-0.14366582
107	0xbdeb2df0	-0.11483371
108	0x3d324fc2	0.043533094
109	0xbd9ccbf3	-0.07656088
110	0xba448e41	-0.0007498004
111	0xbdc5fe18	-0.09667605
112	0xbd5abdc8	-0.053403646
113	0xbd81e413	-0.0634233
114	0x3dad7e86	0.08471398
115	0x3cc7ecd5	0.024404923
116	0x3ddcb7de	0.107772574
117	0xbb3a27b6	-0.0028405017
118	0xbcb8244d	-0.022478247
119	0x3cfc1099	0.030769633
120	0xbd8e5b23	-0.06950977
121	0x3d45a642	0.04825426
122	0xbdaa577d	-0.08317468
123	0x3be02dcd	0.0068413974
124	0xbcc25b72	-0.023725245
125	0x3d09f8c8	0.033684522
126	0xbd2fc77a	-0.042914845
127	0xbc0b796b	-0.008512835
128	0xbdf7247a	-0.12067504
129	0x3c0bb323	0.008526596
130	0x3d29ac00	0.041423798
131	0xbdde2ace	-0.10848008
132	0x3d27d79c	0.040977105
133	0x3cba7ba7	0.02276404
134	0x3e042e90	0.12908387
135	0xbd2140f3	-0.03936858
136	0x3d3ef4e7	0.046620276
137	0xbd7e3654	-0.06206353
138	0xbd9c6244	-0.0763593
139	0xbd78333f	-0.060595747
140	0x3d4e199f	0.050317403
141	0x3c853872	0.016262267
142	0x3d3a1a89	0.045435462
143	0xbce22b37	-0.027608497
144	0x3cc968ae	0.024586048
145	0x3bb7a0ab	0.00560387
146	0xbc9b2acd	-0.018941307
147	0xbd2d0ec7	-0.04225042
148	0xbcecb60e	-0.028895404
149	0x3d818395	0.063239254
150	0xbd9392fa	-0.07205768
151	0x3d9184a3	0.071053766
152	0x3dabd2e5	0.08389834
153	0xbdde78bc	-0.10862872
154	0x3c2d3beb	0.010573368
155	0xbdd02053	-0.10162415
156	0x3d1f2c0b	0.038860362
157	0xbda08856	-0.07838504
158	0xbcb9f0ea	-0.022697885
159	0x3c78e09d	0.015190271
160	0xbdaa25d8	-0.08307999
161	0x3b837e93	0.0040128916
162	0xbd366cb8	-0.044537276
163	0x3d9c0c31	0.07619513
164	0x3e027694	0.12740546
165	0xbccb0ff5	-0.024787882
166	0xbd40046e	-0.046879224
167	0xbd667a08	-0.05626872
168	0xbd3f8b73	-0.04676385
169	0xbdd53cec	-0.104120106
170	0xbe17db54	-0.14829761
171	0x3d536109	0.05160621
172	0xbbfc23a9	-0.0076946807
173	0xbd84ce78	-0.06484693
174	0xbd25d4ce	-0.04048615
175	0x3c877b73	0.016538357
176	0x3d117a4b	0.03551702
177	0xbdbea612	-0.09309019
178	0x3df7bde4	0.12096766
179	0xbce68114	-0.028137721
180	0xbd95680a	-0.072952345
181	0xbc8873c1	-0.016656758
182	0xbc0eee1e	-0.008723764
183	0xbd666123	-0.05624498
184	0xbd594095	-0.053040106
185	0xbd55df52	-0.052214928
186	0xbc5e9a53	-0.013586598
187	0x3d7a0257	0.061037388
188	0x3dba6819	0.09101886
189	0x3c8dcd02	0.01730967
190	0xbac457ac	-0.0014979742
191	0xbca4afc1	-0.020103337
192	0xbdb69bd7	-0.08916443
193	0xbd99fa99	-0.07518501
194	0x3dcee8da	0.10103007
195	0x3dadd035	0.08486978
196	0x3d947842	0.072495
197	0x3d31d423	0.0434152
198	0x3d9026bb	0.07038637
199	0x3d60b5b5	0.05486079
200	0x3d38bfe8	0.04510489
201	0x3d85d591	0.06534875
202	0xbcdc0eab	-0.026862463
203	0xbd8ae738	-0.06782383
204	0x3d9afb0b	0.07567414
205	0xbdf049cc	-0.11732826
206	0xbe41f79a	-0.18942109
207	0x3d6dd85d	0.05806767
208	0xbda838d5	-0.08213965
209	0x3d904311	0.07044042
210	0x3ced128b	0.028939506
211	0xbc9a8c72	-0.018865798
212	0xbb464d16	-0.003025835
213	0xbdbb2aec	-0.09139046
214	0x3d9f262e	0.07770954
215	0xbd6f30f0	-0.05839628
216	0x3d97a3c8	0.07404286
217	0x3ca6ebfa	0.020376194
218	0x3c843af2	0.016141389
219	0xbc396bae	-0.011317177
220	0x3b9cf46a	0.0047898786
221	0x3ce272e6	0.027642678
222	0xbce9e24d	-0.028550291
223	0x3d78216f	0.06057876
224	0xbcb1fcd6	-0.021727007
225	0xbc8ea70c	-0.017413639
226	0x3d673e26	0.056455754
227	0x3d3b1d3a	0.04568217
228	0xbd931de3	-0.07183435
229	0xbd5bee0f	-0.053693827
230	0x3da711fa	0.08157726
231	0x3d881eae	0.06646477
232	0xbb47f3ff	-0.0030510423
233	0xbc940ca2	-0.01807243
234	0x3d93befa	0.0721416
235	0x3d933457	0.071877174
236	0x3b484453	0.0030558303
237	0xbce9ecb3	-0.02855525
238	0x3c6b3e5f	0.014358132
239	0xbd13ae53	-0.03605492
240	0xbc91c4dc	-0.017794065
241	0x3c240f0c	0.010013353
242	0x3cc98591	0.024599822
243	0x3d0ab7c0	0.033866644
244	0xbd5f2118	-0.05447492
245	0xbdbda25f	-0.092594855
246	0x3cc37b1c	0.023862414
247	0x3df4c2d8	0.11951226
248	0x3d5d23ca	0.05398921
249	0xbd635a02	-0.05550576
250	0xbbf4338e	-0.007452435
251	0x3d43749a	0.04771862
252	0xbc030c44	-0.00799853
253	0xbbda167a	-0.0066555114
254	0xbd88a8ac	-0.066727966
255	0x3c6aec7d	0.01433861

net.model.convblock2.0.bias f4 [16]
0	0x3dae23b6	0.08502905
1	0xbe01f475	-0.12690909
2	0x3d8819eb	0.066455685
3	0x3dbe0581	0.092783935
4	0x3e125303	0.14289479
5	0xbdda5711	-0.10661138
6	0x3b726273	0.003698495
7	0xbcace48e	-0.021105077
8	0x3dc69df1	0.09698094
9	0xbe293425	-0.16523798
10	0x3d144a86	0.036203884
11	0x3d376b78	0.044780225
12	0x3d1e77ce	0.038688473
13	0x3d8d237a	0.06891532
14	0xbdc830ee	-0.097749576
15	0xbe204758	-0.15652215

net.model.convblock2.2.weight f4 [16]
0	0x3f70b75b	0.9402978
1	0x3f70beb5	0.94040996
2	0x3f8186ed	1.0119301
3	0x3f797c33	0.9745514
4	0x3f89b124	1.0757184
5	0x3f7a3b36	0.977466
6	0x3f77e429	0.9683252
7	0x3f81aafc	1.0130305
8	0x3f828086	1.0195472
9	0x3f85f1a8	1.0464373
10	0x3f83f547	1.0309228
11	0x3f8418d3	1.0320076
12	0x3f813c26	1.0096481
13	0x3f7e4cd0	0.99335957
14	0x3f808685	1.0041052
15	0x3f72374a	0.94615614

net.model.convblock2.2.bias f4 [16]
0	0xbe26fd62	-0.16307595
1	0xbdcc70dd	-0.099824645
2	0xbd60ec06	-0.05491259
3	0xbb1ff861	-0.002440952
4	0xbd277531	-0.040883247
5	0xbd213cd8	-0.039364666
6	0xbd0db361	-0.034594897
7	0xbe16814f	-0.14697765
8	0xbd5cda67	-0.053919222
9	0x3ca27f0f	0.019835977
10	0xbd164202	-0.036684044
11	0xbd4e6016	-0.050384603
12	0xbded7302	-0.115942016
13	0xbd32b652	-0.043630905
14	0xbde04cec	-0.10952172
15	0xbde44ceb	-0.111474834

net.model.convblock2.2.running_mean f4 [16]
0	0x3e9df9fc	0.30854785
1	0x3e416f58	0.1889013
2	0x3e647346	0.22309598
3	0x3eac3e85	0.3364145
4	0x3ee99269	0.45619515
5	0x3e517fe4	0.20458943
6	0x3ecbf0fe	0.398323
7	0x3e521c96	0.20518717
8	0x3f15b0ae	0.58472717
9	0x3dda1656	0.106487915
10	0x3ea02ccd	0.3128418
11	0x3e815e89	0.25267437
12	0x3e29f3a0	0.16596842
13	0x3e931191	0.2872434
14	0x3ea79718	0.32732463
15	0x3da6f620	0.08152413

net.model.convblock2.2.running_var f4 [16]
0	0x3e1083be	0.14112756
1	0x3dc1fec8	0.09472424
2	0x3e5bf2cd	0.2147934
3	0x3db82598	0.089915454
4	0x3e11d3b2	0.14240912
5	0x3e802b3f	0.25032994
6	0x3e22f962	0.15915444
7	0x3db04751	0.086073525
8	0x3e584fc6	0.21124181
9	0x3dae16f2	0.0850047
10	0x3dcad228	0.099033654
11	0x3ec77966	0.38959807
12	0x3de14896	0.11000173
13	0x3edc1aa9	0.4298909
14	0x3f08dec8	0.5346494
15	0x3dd07103	0.10177805

net.model.convblock3.0.weight f4 [8, 16, 1, 1]
0	0x3e5787c2	0.21047881
1	0xbe297c8f	-0.16551422
2	0x3e65cf1b	0.22442286
3	0x3dfc3f79	0.12316794
4	0x3da8d826	0.08244352
5	0xbdbfed26	-0.09371404
6	0xbd8fa397	-0.07013624
7	0x3e222c5b	0.15837233
8	0xbe3fc2b2	-0.18726614
9	0xbe74f63a	-0.23922053
10	0x3db4bd01	0.08825112
11	0x3d4c858d	0.04993205
12	0x3e314cd6	0.17314467
13	0xbd91d67c	-0.07120988
14	0xbd183689	-0.037161384
15	0xbdcdf01c	-0.10055563
16	0xbdaff8ef	-0.08592402
17	0xbdc877c8	-0.097884715
18	0x3e2a5d8c	0.16637248
19	0xbe3b1372	-0.18269137
20	0xbe8ff02c	-0.28112924
21	0x3e343144	0.17596918
22	0x3e11a614	0.1422351
23	0xbe516a40	-0.20450687
24	0xbe1fd30c	-0.15607852
25	0x3e256ab9	0.16153993
26	0x3e2b8e43	0.16753487
27	0x3e061d54	0.13097125
28	0x3d2bb958	0.041924804
29	0x3e5000d1	0.20312811
30	0xbe305bdf	-0.17222546
31	0x3dc6a2e5	0.096990384
32	0xbd5bc25a	-0.053652145
33	0xbe055377	-0.1302012
34	0xbd567735	-0.05235978
35	0xbd46ea80	-0.04856348
36	0xbbcbd944	-0.0062209684
37	0xbe554661	-0.20827629
38	0xbe2b453c	-0.1672563
39	0xbe0596f6	-0.13045868
40	0x3e876c43	0.26449785
41	0x3e71f7ff	0.23629759
42	0xbd3b34b3	-0.045704555
43	0xbe20e5e9	-0.15712704
44	0xbe2c11dd	-0.1680369
45	0x3e2f7ebd	0.1713819
46	0xbe2c6188	-0.1683408
47	0xbc6efbb3	-0.014586377
48	0xbe482861	-0.19546653
49	0x3dc8fa34	0.098133475
50	0xbd5aa2d3	-0.053377938
51	0x3d2e29ab	0.042520206
52	0x3e4da834	0.20083696
53	0x3df18a0f	0.11793911
54	0x3db276f5	0.087140955
55	0x3e88f333	0.26748046
56	0x3c3d1945	0.011541669
57	0x3df28342	0.11841442
58	0xbdefff2d	-0.11718593
59	0xbd5e1eae	-0.054228477
60	0x3e199d84	0.15001494
61	0xbcb177bb	-0.021663537
62	0xbcb6a5e1	-0.022295894
63	0x3e3fb021	0.18719532
64	0x3e324543	0.17409234
65	0xbdc3a27b	-0.09552475
66	0xbd7e5c38	-0.062099665
67	0xbde39698	-0.11112708
68	0xbdc64d6c	-0.09682736
69	0x3d98e208	0.07464987
70	0xbe872bfa	-0.2640074
71	0xbdc38cb2	-0.0954832
72	0xbe474cd8	-0.19462907
73	0x3e011343	0.12605004
74	0xbe66cb27	-0.22538434
75	0xbd3e5182	-0.04646445
76	0xbe070e70	-0.13189101
77	0x3e09effb	0.13470452
78	0x3e517372	0.20454195
79	0xbe065a34	-0.13120347
80	0xbe04502c	-0.12921208
81	0xbe531e76	-0.20617089
82	0xbe800d42	-0.25010115
83	0x3d6a5717	0.05721196
84	0x3d1326f8	0.035925835
85	0xbe1591b8	-0.14606369
86	0xbc17bca1	-0.009261281
87	0xbdf8a3b2	-0.121405974
88	0x3d321d93	0.043485235
89	0x3c701365	0.0146530615
90	0x3d85bfdb	0.06530734
91	0xbe3d2d68	-0.18474352
92	0xbdc8235f	-0.097723715
93	0xbb574e8a	-0.003285321
94	0xbdbd6b42	-0.092489734
95	0x3da46764	0.08027533
96	0xbcfdcaa2	-0.030980412
97	0x3c3d8392	0.011567013
98	0x3d0d397e	0.034478657
99	0xbe75d0b1	-0.2400539
100	0x3e01a5f0	0.12660956
101	0xbca51236	-0.020150285
102	0xbe910c5a	-0.28329736
103	0x3e32d260	0.17463064
104	0xbd5e32af	-0.054247554
105	0xba71ea47	-0.00092283305
106	0x3ded9dd6	0.116023704
107	0xbe286464	-0.16444546
108	0x3e51883e	0.20462129
109	0x3e2eae80	0.17058754
110	0x3e8706ac	0.26372278
111	0x3dfced0c	0.123499006
112	0xbdf1f3df	-0.11814093
113	0x3c19c626	0.009385621
114	0x3e241108	0.16022122
115	0x3e5f2dd7	0.2179483
116	0xbe8f282c	-0.27960336
117	0x3e0807c4	0.13284212
118	0x3e00b59a	0.12569275
119	0xbd1adc88	-0.03780797
120	0xbad504b8	-0.0016252017
121	0x3db7e60a	0.08979423
122	0xbe7b5be4	-0.24546772
123	0x3d921eb9	0.07134766
124	0x3e524dae	0.20537445
125	0x3e3f135c	0.18659729
126	0x3e0e98be	0.13925454
127	0x3d81533a	0.06314702

net.model.convblock3.0.bias f4 [8]
0	0x3e215d58	0.15758264
1	0x3dd01c13	0.10161605
2	0xbdc0b15c	-0.094088286
3	0x3dd2d013	0.10293593
4	0xbda5952c	-0.08085093
5	0x3d1fe75c	0.039039
6	0x3d013b50	0.031550705
7	0x3c50a9be	0.012735782

net.model.convblock3.2.weight f4 [8]
0	0x3f809219	1.0044585
1	0x3f7d113a	0.9885441
2	0x3f72f44b	0.9490401
3	0x3f86c8d4	1.0530038
4	0x3f84740e	1.0347917
5	0x3f7edc13	0.99554557
6	0x3f7f4d91	0.9972773
7	0x3f7bb502	0.9832307

net.model.convblock3.2.bias f4 [8]
0	0x3db08acf	0.08620226
1	0xbc1a526a	-0.009419063
2	0x3cf69bc3	0.03010357
3	0x3cbc9349	0.02301945
4	0xbe0f3752	-0.13985947
5	0x3da8c78c	0.082411855
6	0xbd9dd5fd	-0.07706831
7	0xbd0989c4	-0.03357865

net.model.convblock3.2.running_mean f4 [8]
0	0x3eeb27e0	0.4592886
1	0x3eebf889	0.46088055
2	0x3e84a67a	0.25908262
3	0x3ef4aa00	0.4778595
4	0x3e6676d3	0.22506265
5	0x3e8c038b	0.27346453
6	0x3ef0c682	0.4702645
7	0x3ee21ece	0.44164127

net.model.convblock3.2.running_var f4 [8]
0	0x3f04c5e5	0.51864463
1	0x3f91bd42	1.1385882
2	0x3e740330	0.23829341
3	0x3f43265c	0.76230407
4	0x3eace6a2	0.3376971
5	0x3daccbfa	0.08437343
6	0x3f60f393	0.87871665
7	0x3f4b4491	0.794015

net.model.convblock4.0.weight f4 [16, 8, 3, 3]
0	0xbe1d2e16	-0.15349612
1	0xbe2f62a0	-0.17127466
2	0xbdde5c37	-0.10857432
3	0x3c0f584c	0.008749079
4	0x3d5d1561	0.053975467
5	0xbe030086	-0.12793168
6	0x3ac2397b	0.0014818156
7	0x3da753c2	0.081702724
8	0xbdedb057	-0.116059
9	0xbe001eec	-0.12511796
10	0xbc8a1e01	-0.01686001
11	0xbd8f5548	-0.06998688
12	0xbda3b493	-0.07993426
13	0x3cdfd698	0.027324006
14	0xbdad53e2	-0.08463265
15	0x3c2b4dc1	0.01045555
16	0xbb55b41a	-0.003260857
17	0xbda9b44d	-0.08286343
18	0x3d419c3e	0.047268145
19	0x3c1774b2	0.009244131
20	0x3dc4bbea	0.09606154
21	0xbd39099b	-0.045175176
22	0xbc04322c	-0.0080686025
23	0xbc4fca2d	-0.01268248
24	0xbc910920	-0.017704546
25	0xbe174a24	-0.14774376
26	0xbce02c61	-0.027364912
27	0x3bb417ef	0.005496017
28	0x3d77a5a3	0.060460698
29	0x3d78c83e	0.06073784
30	0xbd54b2ac	-0.051928207
31	0xbd8b29e6	-0.06795101
32	0xbca921b0	-0.020645946
33	0xbbde519d	-0.0067846314
34	0xbddf1598	-0.108927906
35	0x3d4659fc	0.04842566
36	0x3c0b455a	0.008500421
37	0x3df734f6	0.12070648
38	0xbd994c09	-0.07485206
39	0xbd15411c	-0.036439046
40	0xbc8062b5	-0.015672067
41	0x3d390d27	0.04517856
42	0xbe048888	-0.12942708
43	0xbd235b05	-0.039881725
44	0xbbeb8aca	-0.007188176
45	0x3c5fbc1a	0.013655687
46	0x3c54c0c0	0.012985408
47	0x3de12f7f	0.10995387
48	0xbd894d97	-0.06704252
49	0xbcde5dfd	-0.027144426
50	0x3cf89059	0.030342268
51	0xbd2b5d84	-0.04183723
52	0x3d201672	0.039083906
53	0xbd4909c6	-0.049081586
54	0x3d97d986	0.07414536
55	0xbd09c2fb	-0.033633213
56	0xbdca868d	-0.09888945
57	0xbc792e62	-0.015208812
58	0x3c6d836f	0.014496668
59	0x3dcb67cd	0.09931908
60	0x3c38366e	0.011243446
61	0x3d97634a	0.07391985
62	0xbe0437c3	-0.12911896
63	0xbd4a979c	-0.049460992
64	0x3dc51c5e	0.09624551
65	0x3df279ae	0.11839615
66	0xbdcfc73c	-0.10145423
67	0xbdbb2306	-0.091375396
68	0xbd851491	-0.06498063
69	0x3daf2925	0.085527696
70	0xbd20bd0e	-0.039242797
71	0xbd8677ec	-0.06565842
72	0x3d816e7e	0.06319903
73	0x3d3c0c65	0.045910258
74	0x3d3b4560	0.045720458
75	0xbd24a2e2	-0.0401944
76	0xbcf749e7	-0.030186607
77	0x3b520343	0.0032045401
78	0xbd981887	-0.07426553
79	0xbdd5ea18	-0.104450405
80	0xbe23c697	-0.15993725
81	0xbd4fa1c2	-0.050691374
82	0x3c0acaee	0.008471234
83	0xbd0caa89	-0.034342322
84	0xbdc46c26	-0.0959094
85	0x3cd21334	0.025643922
86	0xbd0a54ac	-0.033772156
87	0xbda11402	-0.07865144
88	0x3ba74643	0.0051048114
89	0xbe01b8dd	-0.12668176
90	0xbd239763	-0.039939296
91	0xbc81891e	-0.015812453
92	0xbd4cbe61	-0.049986247
93	0xbd646ed7	-0.055769768
94	0xba328d86	-0.000681125
95	0x3cd96d1f	0.02654129
96	0x3cea1ffe	0.028579708
97	0x3c0cdc2e	0.008597417
98	0x3d8905bd	0.066905476
99	0x3d243d1e	0.04009735
100	0xbd6c57ab	-0.057700794
101	0x3ceca595	0.02888755
102	0x3d57d531	0.05269355
103	0xbc957550	-0.018244416
104	0xbd4f2805	-0.050575275
105	0xbd52b4f3	-0.051442098
106	0x3c75da55	0.015005668
107	0x3d79f764	0.061026946
108	0x3d2b9ef3	0.041899633
109	0xbdad03c4	-0.08447984
110	0x3dc31f8d	0.09527502
111	0xbdac0f2e	-0.08401333
112	0x3e058ce1	0.13042022
113	0x3d7a2012	0.06106574
114	0xbe0d4625	-0.1379629
115	0xbd99b918	-0.07506007
116	0xbd7398bb	-0.059471827
117	0x3cfdeff4	0.030998208
118	0xbd629559	-0.05531821
119	0xbb90e813	-0.0044221967
120	0x3d94ac36	0.07259409
121	0xbdde5580	-0.108561516
122	0xbdd4106e	-0.10354696
123	0xbd4ad40a	-0.049518622
124	0x3de21a68	0.11040193
125	0x3d6234c4	0.055226102
126	0x3c0d866a	0.008638004
127	0x3d2b3aa1	0.04180396
128	0xbbe3f280	-0.0069563985
129	0x3d161664	0.036642447
130	0xbd7a2aa4	-0.06107582
131	0x3dc10607	0.09424978
132	0xbdaa56e6	-0.08317356
133	0xbdc20a2f	-0.094745986
134	0x3ce069ad	0.02739414
135	0x3d871ae7	0.06596928
136	0xbd314582	-0.04327918
137	0x3e201772	0.15633944
138	0xbdfadd3b	-0.122492276
139	0x3b8578f3	0.004073256
140	0x3d4521c9	0.048127923
141	0xbe417edf	-0.18896054
142	0xbddd57a2	-0.1080773
143	0xbc9b26e7	-0.018939449
144	0x3dbfc4b7	0.09363692
145	0x3d1b8c78	0.03797576
146	0x3e165203	0.14679722
147	0xbcd41e40	-0.02589333
148	0xbd886bec	-0.066612095
149	0xbd77abef	-0.060466703
150	0xbda64401	-0.081184395
151	0x3c76965d	0.015050498
152	0xbd8dabe6	-0.06917553
153	0x3e04b953	0.1296132
154	0x3d243273	0.040087175
155	0x3ddcdb48	0.10784012
156	0xbc0df859	-0.008665168
157	0xbd3106f2	-0.043219514
158	0x3db62d50	0.088953614
159	0xbd8a06cc	-0.06739578
160	0xbd83f7ea	-0.0644377
161	0x3c3a55c4	0.011372987
162	0x3d2234cf	0.039601143
163	0xbd1b344e	-0.03789168
164	0x3d8b9f5d	0.068175055
165	0x3d38fb20	0.045161366
166	0x3cbf8d6b	0.023382863
167	0x3cc0fc32	0.023557756
168	0x3b1a28e1	0.00235229
169	0xbd74422a	-0.05963341
170	0xbe036230	-0.12830424
171	0xbcf455fa	-0.029826153
172	0xbe0c6d79	-0.13713636
173	0xbdce5b99	-0.100760646
174	0x3d9376d8	0.07200402
175	0xbdce398c	-0.1006957
176	0x3d5e29a1	0.05423892
177	0x3d0259cd	0.031823922
178	0x3daa7f8a	0.083251074
179	0x3d49374a	0.049124993
180	0xbda0aa5b	-0.07844993
181	0xbe2a6a74	-0.16642171
182	0xbe327dd4	-0.17430812
183	0xbd2064c8	-0.039158612
184	0xbd13edac	-0.036115333
185	0xbd1abbf3	-0.0377769
186	0xbde841f0	-0.113407016
187	0x3d1dc765	0.038520236
188	0xbca99bfb	-0.02070426
189	0x3ce7d447	0.028299464
190	0xbdc6cd84	-0.09707168
191	0x3dbbc78b	0.09168919
192	0x3cf7a542	0.030230168
193	0xbdb963ba	-0.090522245
194	0x3d504762	0.050849326
195	0xbbea814a	-0.0071565257
196	0xbc4b1609	-0.01239539
197	0xbd6d33a6	-0.057910584
198	0xbd82abba	-0.063804105
199	0xbc93ff35	-0.018066028
200	0x3b1b3c80	0.0023687184
201	0x3c5007f8	0.012697212
202	0xbd4b242d	-0.049595047
203	0xbd82e7db	-0.06391879
204	0x3dd0d593	0.10196986
205	0xbd7e4f18	-0.06208715
206	0x3dc5ae87	0.09652429
207	0x3dbc7fc0	0.09204054
208	0xbd8207fe	-0.06349181
209	0xb982ae1a	-0.00024925248
210	0xbca386a1	-0.019961657
211	0xbcdff779	-0.027339684
212	0xbbc514c5	-0.006014439
213	0xbd972a2f	-0.07381093
214	0x3d93af6a	0.07211192
215	0xbda1254d	-0.07868443
216	0xbd830a7f	-0.06398486
217	0x3d461598	0.048360437
218	0xbdcc9612	-0.09989561
219	0x3db8495c	0.08998367
220	0xbcf676ff	-0.030086039
221	0xbdacb6e2	-0.0843332
222	0x3c9b6fff	0.018974302
223	0xbc20d129	-0.009815493
224	0xbcf15807	-0.02946092
225	0xbdcbb53f	-0.09946679
226	0xbd2a80bb	-0.041626673
227	0x3c70990a	0.014684925
228	0xbc52cc59	-0.012866103
229	0x3d4f19ac	0.050561592
230	0x3d76aada	0.06022153
231	0x3d246994	0.04013975
232	0x3c81fdad	0.015868032
233	0xbb185675	-0.0023244892
234	0xbd609840	-0.054832697
235	0x3d623829	0.05522934
236	0x3cd38ca7	0.025823904
237	0xbdf1dc7f	-0.118096344
238	0xbdce3b2f	-0.10069882
239	0xbcd61bc5	-0.026136288
240	0xbd19ed90	-0.037580073
241	0xbd2d14f4	-0.04225631
242	0xbdfa13ae	-0.12210785
243	0xbdb9d2ee	-0.09073435
244	0x3cb10701	0.021609785
245	0xbd9d66fb	-0.076856576
246	0x3db6d1be	0.08926724
247	0x3b5279e1	0.0032116103
248	0x3c2b8d6f	0.010470732
249	0xbc6032dd	-0.013684002
250	0xbe001ca5	-0.12510927
251	0xbdb886e4	-0.09010103
252	0xbd509b32	-0.050929256
253	0x3b75c519	0.0037501513
254	0x3dd14229	0.10217697
255	0xbe214a37	-0.15750967

net.model.convblock4.0.bias f4 [16]
0	0xbda04936	-0.07826464
1	0x3daced14	0.084436566
2	0xbd1f1ed9	-0.038847778
3	0xbdab8799	-0.083754726
4	0x3d48444d	0.04889326
5	0xbd2c1236	-0.042009555
6	0xbdbc5407	-0.091957144
7	0xbce85c38	-0.028364286
8	0xbdf0bcdc	-0.11754772
9	0x3bcf3c23	0.0063243075
10	0xbd2ed8a4	-0.042687073
11	0xbdf52b65	-0.119711675
12	0xbd85d6ec	-0.06535134
13	0x3dc012ab	0.09378561
14	0x3e281571	0.16414429
15	0xbd29996b	-0.041406076

net.model.convblock4.2.weight f4 [16]
0	0x3f83071e	1.0236547
1	0x3f847074	1.0346818
2	0x3f799200	0.97488403
3	0x3f79172b	0.97300977
4	0x3f7c0220	0.9844074
5	0x3f813b32	1.009619
6	0x3f7fb45f	0.998846
7	0x3f7329aa	0.9498545
8	0x3f7f9411	0.99835306
9	0x3f854d7f	1.0414275
10	0x3f782ac7	0.96940273
11	0x3f84a384	1.0362401
12	0x3f6d92df	0.9280223
13	0x3f80b7db	1.0056108
14	0x3f80a147	1.0049218
15	0x3f7cbb32	0.9872314

net.model.convblock4.2.bias f4 [16]
0	0xbd9cb6e8	-0.07652074
1	0x3d965bda	0.07341738
2	0x3c925bda	0.017866064
3	0xbd61569b	-0.055014234
4	0x3d83c7c2	0.06434585
5	0x3db60e43	0.08889439
6	0x3d0514d6	0.032490574
7	0x3dc35b7b	0.09538933
8	0x3d976c5f	0.07393717
9	0x3debed22	0.11519839
10	0x3d84bf6e	0.06481825
11	0x3e0416c7	0.12899314
12	0x3dc506b2	0.09620418
13	0x3d97c8b5	0.07411329
14	0x3d5d0174	0.053956464
15	0x3c5d66ba	0.013513261

net.model.convblock4.2.running_mean f4 [16]
0	0x3e743237	0.2384728
1	0x3eae22ea	0.34011012
2	0x3e6f3214	0.23358947
3	0x3e3275fd	0.17427821
4	0x3ea05367	0.3131363
5	0x3e870634	0.2637192
6	0x3e433e3e	0.19066712
7	0x3e845873	0.2584873
8	0x3e906de2	0.28208834
9	0x3ebc0717	0.3672416
10	0x3e22d507	0.15901576
11	0x3e5ee820	0.21768236
12	0x3e6d8cbf	0.23198222
13	0x3ec38155	0.3818461
14	0x3eea7488	0.4579203
15	0x3e9277cc	0.28607023

net.model.convblock4.2.running_var f4 [16]
0	0x3db04524	0.086069375
1	0x3e2a7e88	0.1664983
2	0x3e20b7ff	0.15695189
3	0x3db84b17	0.08998697
4	0x3ebbcfd9	0.36682013
5	0x3e3ff065	0.18744047
6	0x3e2b7e39	0.16747369
7	0x3e01dbb3	0.12681465
8	0x3ea8d590	0.32975435
9	0x3e76c499	0.24098434
10	0x3dff6c56	0.12471835
11	0x3e1baa87	0.1520177
12	0x3de2233f	0.11041879
13	0x3e2cdf78	0.16882122
14	0x3e93a4c2	0.28836638
15	0x3e971b58	0.2951305

net.model.convblock5.0.weight f4 [16, 16, 3, 3]
0	0xbb1e3162	-0.0024138321
1	0x3d276213	0.040865015
2	0x3d2be540	0.041966677
3	0xbc0fb050	-0.0087700635
4	0x3cb63b71	0.02224514
5	0xbcb5056c	-0.022097312
6	0xbda4db51	-0.08049644
7	0xbe05bee9	-0.13061108
8	0xbd5e4dc1	-0.05427337
9	0xbd78afbe	-0.060714476
10	0x3d327a58	0.043573707
11	0xbce1c477	-0.027559502
12	0xbdc7ec38	-0.09761852
13	0xbd7dffce	-0.062011532
14	0xbd5ce072	-0.053924985
15	0xbda1bc28	-0.07897216
16	0xbe06deed	-0.13170977
17	0xbbf2437e	-0.0073932996
18	0x3c83dd85	0.01609684
19	0xbca1d9bd	-0.019757146
20	0x3bac2440	0.005253345
21	0xbc3accf3	-0.011401403
22	0x3da3dce6	0.080011174
23	0x3d56f471	0.05247921
24	0xbd9f17c3	-0.07768204
25	0x3c82ccbe	0.01596677
26	0xbd9809ba	-0.0742373
27	0x3cae3c92	0.021269117
28	0x3d9b6c5e	0.07589029
29	0x3d3d1e3b	0.04617141
30	0xbd9edb39	-0.07756657
31	0xbd1c7058	-0.038193077
32	0x3d68027f	0.056643005
33	0xbcb951b7	-0.022621972
34	0x3bc34a85	0.005959811
35	0x3d1c3b38	0.038142413
36	0x3cc31f17	0.023818536
37	0xbda41f1f	-0.080137484
38	0xbe150cfc	-0.14555734
39	0xba62de2e	-0.0008654323
40	0x3cbbb487	0.02291323
41	0xbdb9998f	-0.09062492
42	0x3d6da7c2	0.058021314
43	0xbdc1aa0d	-0.09456263
44	0xbba8bc4d	-0.0051494003
45	0x3da2668e	0.07929717
46	0xbdaa1e8a	-0.08306606
47	0xbc8aeaac	-0.016957603
48	0xbdab7b1e	-0.08373092
49	0x3cd7fb09	0.02636482
50	0xbd882edd	-0.066495635
51	0xbc937817	-0.0180016
52	0x3c97d8ba	0.01853596
53	0xbcb5ec40	-0.02220738
54	0x3c909feb	0.01765438
55	0x3d341536	0.04396554
56	0xbc0605d0	-0.008180097
57	0x3d2a5dcb	0.041593354
58	0x3c531c4d	0.012885165
59	0xbdade89b	-0.084916316
60	0xbc082110	-0.008308664
61	0x3d2399cf	0.039941605
62	0xbdc3f3cd	-0.09567986
63	0xbc05f813	-0.008176821
64	0xbd31a943	-0.04337431
65	0x3d0c1849	0.034202848
66	0xbd77be0e	-0.060483985
67	0x3d66b1c1	0.056321863
68	0x3d32c6e5	0.04364671
69	0x3c0186a3	0.007905635
70	0x3d091c68	0.033474356
71	0x3cc6466b	0.0242035
72	0xbd8d0214	-0.06885162
73	0xbd7a37b8	-0.061088294
74	0x3c2c61a2	0.010521324
75	0xbc52657f	-0.012841581
76	0xbd9be256	-0.076115295
77	0xba3954bd	-0.0007069817
78	0x3d5138ae	0.051079445
79	0x3cbbd7bd	0.02293002
80	0x3dc54723	0.09632709
81	0xbcdd1133	-0.02698574
82	0xbbe3ba8e	-0.0069497293
83	0xbd865efb	-0.06561085
84	0xbd1420b5	-0.036164004
85	0xbd01cfd9	-0.03169236
86	0x3d8f93bf	0.07010602
87	0xbc61aa2d	-0.013773483
88	0x3d706d42	0.058697946
89	0xbda4dd12	-0.08049978
90	0x3ca157fd	0.019695276
91	0x3d9de811	0.07710279
92	0xbd86e34d	-0.06586323
93	0xbbcec7d7	-0.006310444
94	0x3bda14c5	0.006655308
95	0xbc264df3	-0.0101504205
96	0x3d44fea1	0.048094396
97	0x3de7c334	0.11316529
98	0x3d9ab6a2	0.07554366
99	0x3b7b366c	0.0038331999
100	0xbc44b2fa	-0.012005562
101	0xbd999c67	-0.075005345
102	0xbd260e67	-0.04054108
103	0x3d0e2efd	0.03471278
104	0x3d2e76aa	0.042593636
105	0xbcb97f95	-0.022643844
106	0xbd265d4e	-0.040616326
107	0xbd0ee385	-0.03488495
108	0xbd1458e5	-0.03621759
109	0xbd1e96a6	-0.03871789
110	0xbc54f8f4	-0.012998808
111	0x3d76c152	0.06024296
112	0xbae8930b	-0.0017744018
113	0x3dbec2cc	0.09314498
114	0xbce87d15	-0.028379956
115	0x3d1315cc	0.03590946
116	0xbd42d794	-0.047568873
117	0xbbbd8609	-0.0057838005
118	0xbc090242	-0.008362355
119	0x3cb38a8c	0.02191665
120	0xbd9c70af	-0.0763868
121	0xbd7388d3	-0.059456658
122	0x395c7638	0.00021024875
123	0xbc7d920b	-0.015476714
124	0xbe06ea7f	-0.1317539
125	0xbb06e48f	-0.002058301
126	0xbd08ea08	-0.033426315
127	0xbbb68278	-0.0055697523
128	0xbd19ea94	-0.037577227
129	0xbd363f1d	-0.044493783
130	0xbb99ad5f	-0.004689857
131	0x3d3c3558	0.04594931
132	0x3daca473	0.08429804
133	0x3d7de1a4	0.061982766
134	0x3ca3f654	0.02001492
135	0x3d312ec7	0.0432575
136	0xbd548a8a	-0.051889934
137	0x3cb83362	0.022485439
138	0xbc2e43ba	-0.010636264
139	0x3b62c5f9	0.0034602864
140	0xbd0d0d01	-0.03443623
141	0x3d5b7032	0.053573795
142	0x3dcbede3	0.09957483
143	0xbc5c5440	-0.013447821
144	0xbd2bd10e	-0.041947417
145	0xbb4704da	-0.0030367882
146	0xbd19e5b4	-0.037572578
147	0x3cc5d0f0	0.02414748
148	0xbd9f8c9f	-0.07790493
149	0xbd9aab1a	-0.07552166
150	0xbd81fbb4	-0.06346837
151	0x3d8e4c61	0.06948162
152	0xbb6123dc	-0.003435365
153	0xb9dae430	-0.00041750213
154	0x3d12f95e	0.035882346
155	0x3c932174	0.017960288
156	0x3c973e28	0.018462256
157	0x3d23fea2	0.04003776
158	0xbd32e2b2	-0.043673225
159	0x3d90632a	0.07050164
160	0x3cbeded3	0.02329961
161	0x3de568b6	0.11201613
162	0xbd0c0210	-0.034181654
163	0xbc51e75c	-0.012811508
164	0xbc86cea6	-0.01645596
165	0x3bad7954	0.0052940045
166	0x3d51284d	0.051063824
167	0xbd38b475	-0.045093972
168	0x3db629d1	0.088946946
169	0xb9f1d4c5	-0.00046125628
170	0x3ba8994a	0.0051452266
171	0x3da00efb	0.07815357
172	0xbca43930	-0.0200468
173	0x3c0e8f80	0.008701205
174	0xbd7b584e	-0.06136351
175	0xbd4ddfde	-0.050262325
176	0x3ae96ee2	0.0017809535
177	0xbc9d3b1a	-0.01919322
178	0x3d6b0b44	0.05738379
179	0x3db945bf	0.09046506
180	0xbc9e62d2	-0.01933423
181	0x3d63c332	0.055606075
182	0x3d089b61	0.033351306
183	0xbc3f3384	-0.011669997
184	0x3d4c346f	0.049854692
185	0x3d86f6d7	0.0659005
186	0x3d77a3c3	0.06045891
187	0xbcc9e53a	-0.024645437
188	0x3d3e5658	0.046469063
189	0xbd3801a7	-0.04492345
190	0xbd3b6aee	-0.045756273
191	0x3d967dc6	0.07348208
192	0xbd10db8e	-0.035365634
193	0x3d3f123f	0.04664826
194	0xbda01748	-0.078169405
195	0x3d76077e	0.06006574
196	0xbdae3bcc	-0.08507499
197	0xbdcc52b3	-0.09976711
198	0x3d347123	0.044053208
199	0x3d9e2a5d	0.07722924
200	0x3dada0cc	0.08477935
201	0x3dbea358	0.09308499
202	0x3d849c85	0.06475166
203	0x3b5ff353	0.0034172132
204	0x3daf53d0	0.08560908
205	0x3d89d3bc	0.06729838
206	0x3d354070	0.044250906
207	0x3db031b1	0.08603228
208	0xbc467d80	-0.0121148825
209	0x3cb19ffe	0.021682736
210	0xbdce34ae	-0.100686416
211	0x3c856bc0	0.01628673
212	0xbd5f8e86	-0.05457928
213	0xbdf68413	-0.1203691
214	0xbc93e3d8	-0.01805298
215	0xbdcdcc0e	-0.10048686
216	0x3d6cc6cf	0.057806786
217	0x3ba3f6de	0.005003794
218	0xbd13ed83	-0.03611518
219	0x3caec0dc	0.021332197
220	0x3ce8c68b	0.028414985
221	0x3d01cb3c	0.03168796
222	0xbda2bb21	-0.07945848
223	0x3d375034	0.044754222
224	0xbd09de44	-0.033659235
225	0x3d9ab04c	0.07553157
226	0x3c93c4a4	0.018038101
227	0xbcda0a11	-0.026616128
228	0x3d3ee984	0.046609417
229	0x3dac6f12	0.084196225
230	0xbd0c3061	-0.034225825
231	0x3d9c81ef	0.0764197
232	0xbbae9c67	-0.005328703
233	0xbca3febc	-0.020018928
234	0x3cff49e5	0.031163165
235	0xbc82a82c	-0.015949331
236	0xbd4c05b1	-0.049810115
237	0x3d4f8e02	0.05067254
238	0x3d5e6bed	0.054302145
239	0xbbd575b0	-0.0065142736
240	0xbd7dde0f	-0.06197935
241	0x3cfa35bf	0.030543206
242	0xbc022aa9	-0.007944741
243	0xbd841223	-0.06448772
244	0x3d45708d	0.04820304
245	0x3bcb4709	0.0062035364
246	0x3d2a09d5	0.041513283
247	0x3cba8cf7	0.022772295
248	0x3d374a62	0.04474867
249	0x3c2a6461	0.010399909
250	0xbd11b834	-0.03557606
251	0xbb8593f8	-0.004076477
252	0x3cceb6b8	0.025233611
253	0xbcbf6f4d	-0.023368502
254	0xbdf665ae	-0.120311126
255	0xbbe99393	-0.007128188

net.model.convblock5.0.bias f4 [16]
0	0x3d28794b	0.0411313
1	0x3d82d150	0.063875794
2	0xbdc6ae8c	-0.09701261
3	0xbd13f359	-0.036120746
4	0xbd915696	-0.07096593
5	0xbe2eb9c6	-0.17063054
6	0xbd5acd4a	-0.053418435
7	0xbddef95a	-0.10887404
8	0x3d00f636	0.031484805
9	0x3d8d4bba	0.06899209
10	0xbe113be4	-0.14183003
11	0x3d9b9379	0.075964876
12	0xbd930635	-0.07178918
13	0x3d02b157	0.031907406
14	0xbd9fcf62	-0.07803227
15	0xbc9bd78d	-0.019023681

net.model.convblock5.2.weight f4 [16]
0	0x3f7e8ae5	0.99430686
1	0x3f785852	0.97009766
2	0x3f75ee6f	0.96066946
3	0x3f7da6e5	0.99082786
4	0x3f7dbd14	0.99116635
5	0x3f82e158	1.022502
6	0x3f8165a4	1.0109143
7	0x3f825c92	1.01845
8	0x3f803102	1.0014956
9	0x3f810d83	1.0082248
10	0x3f7c2603	0.984955
11	0x3f804369	1.0020572
12	0x3f81d2d6	1.0142467
13	0x3f7c4276	0.9853891
14	0x3f8399fa	1.0281365
15	0x3f79ceae	0.97580993

net.model.convblock5.2.bias f4 [16]
0	0x3c98a139	0.018631564
1	0x3d94c019	0.07263202
2	0xbc83148a	-0.016001005
3	0xbbf985f8	-0.0076148473
4	0xbb2e5c79	-0.002660541
5	0x3d049359	0.032367084
6	0xbdd67e6d	-0.104733326
7	0x3d277bc5	0.04088952
8	0xbdac3780	-0.08409023
9	0x3af81121	0.0018926003
10	0xbc15fa9a	-0.009153986
11	0xbc6ecf1f	-0.014575749
12	0xbd846681	-0.064648636
13	0x3ceb645d	0.02873438
14	0x3d96961b	0.07352849
15	0x3ca99389	0.020700233

net.model.convblock5.2.running_mean f4 [16]
0	0x3eb1a018	0.34692454
1	0x3eccf67c	0.40031803
2	0x3e17a7dd	0.14810129
3	0x3e6a4b62	0.22880319
4	0x3e547cbf	0.20750712
5	0x3e5482ee	0.2075307
6	0x3e2610bf	0.16217326
7	0x3e9a2789	0.30108288
8	0x3ebaffcc	0.36523283
9	0x3e8d38c6	0.27582377
10	0x3e8af1ab	0.27137503
11	0x3ebaee4d	0.36509934
12	0x3e4a60a3	0.19763426
13	0x3ed3dc4b	0.41379008
14	0x3e7c59f8	0.24643695
15	0x3ea76294	0.32692397

net.model.convblock5.2.running_var f4 [16]
0	0x3e96eade	0.29476064
1	0x3ebe7994	0.37202132
2	0x3dae1f6d	0.08502088
3	0x3e1344d4	0.14381725
4	0x3e2918e7	0.16513406
5	0x3dda5ede	0.10662626
6	0x3df691c5	0.12039522
7	0x3e802a4f	0.2503228
8	0x3e89ca83	0.26912317
9	0x3e3eaaa6	0.18619785
10	0x3e80277c	0.25030124
11	0x3e7adbcc	0.24497908
12	0x3e11a72b	0.14223926
13	0x3ec5f077	0.38660023
14	0x3e1a7dc3	0.15087037
15	0x3e8a5d44	0.2702428

net.model.convblock6.0.weight f4 [16, 16, 3, 3]
0	0xbd3e29ba	-0.046426512
1	0xbd98527c	-0.07437608
2	0xba2da92a	-0.00066246337
3	0x3d16bad3	0.036799263
4	0x3da0644b	0.07831629
5	0x3d1ac252	0.037782975
6	0xbd45a567	-0.048253443
7	0xbca2dbd4	-0.019880213
8	0xbda7ce32	-0.081936255
9	0x3d90e6ff	0.07075309
10	0xbbd1fac1	-0.006408066
11	0x3d17e033	0.037079047
12	0xbd8188b8	-0.06324905
13	0xbc44560f	-0.011983409
14	0xbd63df72	-0.055633016
15	0x3ca83cdc	0.020536833
16	0x3c0d6ec7	0.008632368
17	0xbc008c3a	-0.007845933
18	0x3cc70124	0.024292536
19	0x3b651e1a	0.003496057
20	0x3dc3639e	0.09540485
21	0x3c454cfc	0.01204228
22	0xbd29e854	-0.04148133
23	0x3db028c5	0.08601526
24	0x3dbffc86	0.09374337
25	0x3d0d465b	0.034490924
26	0xbb9839b0	-0.0046455488
27	0xbce1cc7e	-0.02756333
28	0xbdd8f0b3	-0.10592785
29	0xbd90f2ae	-0.070775375
30	0x3d5d0063	0.053955447
31	0x3d0f76ca	0.035025395
32	0x3cdddf74	0.02708409
33	0x3d70da98	0.058802217
34	0x3ce1e5a3	0.02757532
35	0x3d2139f9	0.039361928
36	0x3cab1c77	0.020887597
37	0x3d0e54c7	0.03474882
38	0x3d15dd5f	0.03658807
39	0xbc0c0205	-0.008545403
40	0x3b1c0ed9	0.002381256
41	0xbc90822f	-0.017640201
42	0x3cad927f	0.021188019
43	0x3dbf90c4	0.09353784
44	0x3d6016d4	0.05470927
45	0x3d85e6bc	0.0653815
46	0xbb86a6ab	-0.004109224
47	0x3da59fdb	0.08087131
48	0xbcfdc22a	-0.030976374
49	0x3ce4e013	0.027938878
50	0xbd84211e	-0.06451629
51	0xbd04849c	-0.03235303
52	0xbd9c6428	-0.07636291
53	0xbd486003	-0.04891969
54	0xbd8aa200	-0.0676918
55	0x3c53f3bb	0.012936528
56	0x3d83adfb	0.064296685
57	0x3cfb0ca6	0.03064568
58	0xbc114c6a	-0.008868316
59	0x3c031104	0.007999662
60	0xbd5b4b5a	-0.053538658
61	0x3bd9c8d2	0.006646254
62	0x3d55302d	0.052047897
63	0x3c015af5	0.007895221
64	0xbc16d65f	-0.0092063835
65	0xbcfd7b5d	-0.030942613
66	0x3d338406	0.04382708
67	0xbd92d4a0	-0.07169461
68	0xbd12d15c	-0.035844192
69	0x3c458a3e	0.012056885
70	0xbdb47587	-0.08811479
71	0xbb7eb938	-0.0038867723
72	0xbd1a5015	-0.03767403
73	0xbcc60377	-0.024171574
74	0x3c174c39	0.0092344815
75	0x3d918bea	0.071067646
76	0x3d78e830	0.060768306
77	0xbd52e39d	-0.0514866
78	0x3ccafb77	0.02477811
79	0xbd262446	-0.040561937
80	0xbc4782c3	-0.012177172
81	0xbcec56eb	-0.02885004
82	0xbd8ebb7a	-0.06969352
83	0xbd7a2d1d	-0.06107818
84	0x3d05a4bc	0.032627806
85	0x3d2de0ce	0.04245072
86	0xbcc904c6	-0.024538409
87	0x3d39ba9d	0.045343984
88	0x3d712eb6	0.058882438
89	0x3dd37068	0.10324174
90	0xbc3a687c	-0.01137745
91	0x3a074dcc	0.0005161434
92	0x3c4ab037	0.012371114
93	0xbd4eb837	-0.05046865
94	0x3ab35f61	0.0013685041
95	0xbd4f69c8	-0.05063799
96	0xbd4d67c2	-0.05014778
97	0xbb85dbd0	-0.0040850416
98	0xbda24b31	-0.07924498
99	0x3d2da8eb	0.04239742
100	0x3c9567b1	0.01823792
101	0x3d07c238	0.033144206
102	0xbd868153	-0.065676354
103	0x3cf7e28e	0.030259397
104	0x3d37f363	0.044909846
105	0x3d502656	0.05081781
106	0x3c7d5727	0.015462673
107	0xbc33a869	-0.010965445
108	0xbd69e52e	-0.05710333
109	0x3cc989b9	0.024601804
110	0x3d7f0adf	0.062266227
111	0xbc7abe80	-0.015304208
112	0x3b7efd94	0.0038908469
113	0x3d8e2a35	0.06941644
114	0x3d389ba3	0.0450703
115	0x3da8987f	0.08232211
116	0x3dd3f7c8	0.10349995
117	0x3dc644cf	0.09681093
118	0x3d6f47c3	0.058418047
119	0x3ceb1347	0.028695716
120	0xbd17084e	-0.036873154
121	0xbda7d473	-0.08194818
122	0xb998720c	-0.0002907667
123	0xbd887760	-0.06663394
124	0x3cb4a28a	0.02205016
125	0xbd8fd83e	-0.07023667
126	0xbd1941b8	-0.03741619
127	0xbc780b75	-0.01513945
128	0xbd995472	-0.0748681
129	0xbd9a4e86	-0.075345084
130	0xbd862982	-0.06550886
131	0xbd801ade	-0.062551245
132	0xbc992694	-0.018695153
133	0x3be1b666	0.0068881987
134	0xbcbdb981	-0.023159744
135	0xbd830266	-0.06396942
136	0xbdea2bc3	-0.11434128
137	0xbd424e90	-0.047438204
138	0xbcc70b7a	-0.024297465
139	0xbdaba4e3	-0.08381059
140	0xbc3d9680	-0.0115715265
141	0x3d58f098	0.052963823
142	0xbdbc0bb4	-0.0918192
143	0xbe2895b5	-0.16463359
144	0x3cf79234	0.030221082
145	0x3d60e2aa	0.054903664
146	0x3d58ebb5	0.052959163
147	0x3d61f978	0.055169553
148	0xbcfd2223	-0.030900067
149	0xbd36a070	-0.0445866
150	0x3d1f93a3	0.038959157
151	0xbd85d011	-0.06533826
152	0xbc820a2b	-0.01587399
153	0xbc5d38c8	-0.013502307
154	0x3cf8b180	0.030358076
155	0x3dc0f310	0.094213605
156	0x3cb86ee1	0.022513809
157	0xbd8ff50e	-0.07029162
158	0xbc48b1d6	-0.012249431
159	0xbc92139e	-0.01783162
160	0xbd22a145	-0.03970458
161	0xbc90272c	-0.017596804
162	0xbc218283	-0.009857777
163	0x3cc54da9	0.024084883
164	0x3b1cd0f0	0.0023928247
165	0x3cc067c7	0.023486985
166	0x3ce8bf24	0.028411455
167	0x3dbd837c	0.09253594
168	0x3cf2558b	0.029581806
169	0x3d4785bc	0.048711523
170	0x3cf01a6b	0.029309472
171	0x3c6112e8	0.013737418
172	0xbd3efd80	-0.046628475
173	0x3c3c6b8f	0.011500253
174	0x3c6bdeca	0.014396379
175	0xbc854c8a	-0.016271848
176	0xbcbf8757	-0.023379965
177	0x3d17f865	0.03710212
178	0x3c018048	0.00790412
179	0xbda0e06b	-0.07855304
180	0x3da2012c	0.0791038
181	0x3d862d73	0.065516375
182	0xbceba604	-0.028765686
183	0x3dd28bdf	0.102805845
184	0xbc045732	-0.00807743
185	0x3d1a3287	0.037645843
186	0xbd0964fe	-0.03354358
187	0xbd5bd29e	-0.053667657
188	0x3d59dac4	0.053187147
189	0x3b6098f0	0.0034270845
190	0xbcfac783	-0.030612713
191	0xbd3b987a	-0.04579971
192	0x3c035c80	0.008017659
193	0xbd5603f5	-0.052249867
194	0x3d42961a	0.04750643
195	0xbceb3211	-0.028710397
196	0xbdd0c869	-0.10194475
197	0x3c1c1ffc	0.00952911
198	0xbdadec90	-0.08492386
199	0xbcb9d1ab	-0.022682985
200	0x3ca545a9	0.020174818
201	0xbd14a1e0	-0.03628719
202	0x3d0842bf	0.03326678
203	0x3df0159f	0.11722874
204	0x3b8baf43	0.004262836
205	0x3d1557cf	0.036460694
206	0x3d23bbc1	0.039973978
207	0xbca1dd44	-0.019758828
208	0xbe09ecc6	-0.13469228
209	0xbe315374	-0.17316991
210	0x3da74f3e	0.08169411
211	0x3d98cd59	0.07461042
212	0x3c06ae51	0.008220271
213	0x3cb26484	0.021776445
214	0x3aa4f306	0.0012584634
215	0xbcaf3560	-0.021387756
216	0xbcb31973	-0.021862721
217	0xbd9ac80f	-0.075576894
218	0xbda5bd73	-0.08092775
219	0x3d70ec26	0.05881896
220	0xbda9ba77	-0.082875185
221	0x3d1fda86	0.03902676
222	0xbddc3432	-0.10752143
223	0xbcaf8e18	-0.02143006
224	0x3c8fabb4	0.01753793
225	0x3c8104a0	0.015749276
226	0xbc49a7e9	-0.012308099
227	0x3d635ab8	0.055506438
228	0xbd957cda	-0.07299204
229	0xbd08f6c3	-0.033438455
230	0xbd345282	-0.044023998
231	0x3bcf5a3d	0.006327896
232	0xbdc5da96	-0.096608326
233	0xbe12259c	-0.1427216
234	0xbd8241f3	-0.06360235
235	0xbc7d0876	-0.015443912
236	0xbd878667	-0.06617432
237	0x3ce9addc	0.028525285
238	0xbc3f65af	-0.011681958
239	0xbd548c4f	-0.05189162
240	0x3d9b52c8	0.07584149
241	0x3d256d04	0.04038717
242	0x3dc844f4	0.09778777
243	0xbcbaf0ae	-0.022819843
244	0x3ca819f9	0.020520197
245	0xbd76dac1	-0.060267214
246	0x3cc61868	0.02418156
247	0x3d7048ea	0.058663286
248	0x3d7741c9	0.060365472
249	0x3d1c03d5	0.038089592
250	0x3c257339	0.010098272
251	0x3bb7d9b0	0.005610667
252	0x3d944c92	0.07241167
253	0xbc633a25	-0.013868843
254	0xbd3f38d9	-0.046685074
255	0x3d357c76	0.04430815

net.model.convblock6.0.bias f4 [16]
0	0xbddfdf6c	-0.10931286
1	0xbe005ce0	-0.12535429
2	0xbdb3a208	-0.087711394
3	0xbba8d6c3	-0.0051525547
4	0xbd14e127	-0.036347535
5	0xbe5aa6df	-0.21352719
6	0x3d1a6c39	0.037700865
7	0x3dca4c9a	0.09877892
8	0x3cc3b10e	0.023888137
9	0xbd0d079e	-0.034431092
10	0xbe270a90	-0.16312623
11	0xbe215bf2	-0.1575773
12	0xbdf0eaa0	-0.11763501
13	0xbde4b10b	-0.11166581
14	0xbd83e52c	-0.064401954
15	0xbd8a774b	-0.067610346

net.model.convblock6.2.weight f4 [16]
0	0x3f828400	1.0196533
1	0x3f817558	1.0113935
2	0x3f7ff977	0.9999003
3	0x3f76f586	0.9646839
4	0x3f7b7213	0.9822094
5	0x3f7d6f78	0.9899821
6	0x3f7411d7	0.9533972
7	0x3f74197f	0.95351404
8	0x3f7642d4	0.9619572
9	0x3f7b56ca	0.98179305
10	0x3f79dfd7	0.9760718
11	0x3f84691d	1.0344578
12	0x3f8b94d3	1.0904793
13	0x3f723594	0.94613004
14	0x3f77dd6c	0.9682224
15	0x3f85e138	1.0459356

net.model.convblock6.2.bias f4 [16]
0	0xbde2129a	-0.11038704
1	0xbe18bb9e	-0.1491532
2	0xbe45844f	-0.19288753
3	0xbe313e36	-0.17308888
4	0xbe164a49	-0.14676775
5	0xbe5b31f2	-0.21405771
6	0xbe2eb1b7	-0.1705998
7	0xbe165f8d	-0.14684887
8	0xbd759cfc	-0.059964165
9	0xbd458063	-0.048218142
10	0xbdf32557	-0.118723564
11	0xbdbd19b9	-0.09233422
12	0xbe23a68f	-0.15981506
13	0xbe1a95c7	-0.15096198
14	0xbd8e5e35	-0.06951562
15	0xbdc5b4d0	-0.09653628

net.model.convblock6.2.running_mean f4 [16]
0	0x3e68977b	0.22714035
1	0x3e8d32b0	0.27577734
2	0x3ea86f96	0.32897633
3	0x3e95dd38	0.2927034
4	0x3e968fe0	0.29406643
5	0x3e129225	0.14313562
6	0x3e6f841d	0.23390241
7	0x3eb93eae	0.36180633
8	0x3e8afb83	0.27145013
9	0x3e665001	0.22491457
10	0x3e97f2b1	0.29677346
11	0x3e521778	0.20516765
12	0x3e98b7cc	0.29827726
13	0x3ecb8333	0.39748535
14	0x3e8c8756	0.27447003
15	0x3e86c0d7	0.26319

net.model.convblock6.2.running_var f4 [16]
0	0x3e287683	0.16451459
1	0x3e548848	0.20755112
2	0x3e43b6a0	0.19112635
3	0x3e1c7431	0.15278699
4	0x3e2da52f	0.16957544
5	0x3dabf570	0.08396423
6	0x3e055064	0.13018948
7	0x3e8048b3	0.25055465
8	0x3e759e07	0.23986064
9	0x3e02929d	0.12751241
10	0x3e64552f	0.2229812
11	0x3e6449df	0.22293805
12	0x3e239b6a	0.15977255
13	0x3e758839	0.23977746
14	0x3e2c3a35	0.16819079
15	0x3e806e65	0.25084224

net.model.convblock7.0.weight f4 [8, 16, 1, 1]
0	0x3da54022	0.08068873
1	0xbb56fb5c	-0.003280363
2	0xbe3a33ae	-0.18183777
3	0x3d8ccd0c	0.06875047
4	0xbe0d8eed	-0.13824053
5	0x3bcc7aa4	0.006240206
6	0x3df1d8b9	0.11808915
7	0x3e59cb8a	0.2126905
8	0x3e35c843	0.17752175
9	0x3d8de4a1	0.06928373
10	0xbdb65db1	-0.08904589
11	0x3e10feeb	0.14159743
12	0xbdea7ad3	-0.11449208
13	0xbe0a9d0e	-0.13536474
14	0x3be4c320	0.0069812685
15	0x3e2045e4	0.15651661
16	0xbd857110	-0.065157056
17	0xbe635de7	-0.2220379
18	0xbe80133a	-0.2501467
19	0xbd1ef2dd	-0.03880583
20	0xbe808773	-0.2510334
21	0x3e5eeaca	0.21769252
22	0x3c993fd5	0.018707195
23	0xbe63b8bd	-0.22238441
24	0xbdd893cb	-0.10575064
25	0x3e2e6c6e	0.1703355
26	0x3c2d4e89	0.010577806
27	0x3e4196c6	0.18905172
28	0xbdd1a67f	-0.10236835
29	0x3e53468d	0.20632382
30	0x3e69a8c2	0.22818282
31	0x3cc12e54	0.023581661
32	0xbe10c3ef	-0.14137243
33	0xbe09f114	-0.1347087
34	0x3e04e6dc	0.12978691
35	0xbe05e8cc	-0.13077086
36	0xbce591a6	-0.028023552
37	0x3e037f91	0.12841631
38	0x3e41e784	0.18935972
39	0x3e12cdd5	0.14336331
40	0xbc262415	-0.010140439
41	0xbdff3ade	-0.124624
42	0xbe2c5915	-0.16830857
43	0x3d2864d8	0.041111797
44	0xbdef0ad4	-0.11671987
45	0xbd56f8f5	-0.052483518
46	0x3dc55503	0.09635355
47	0x3ddceec9	0.10787732
48	0x3e0e3913	0.1388896
49	0x3c46510e	0.012104286
50	0x3c9ada26	0.01890285
51	0xbc394a50	-0.011309221
52	0xbc040cd1	-0.008059696
53	0x3de83d1d	0.113397814
54	0xbde932d0	-0.11386645
55	0x3e455449	0.19270433
56	0x3e1e5732	0.1546295
57	0xbdbae26f	-0.0912522
58	0xbe0f7752	-0.14010361
59	0x3e71af69	0.2360207
60	0xbe44fa22	-0.19236043
61	0x3dcb046d	0.099129535
62	0x3df0d942	0.11760189
63	0x3e82ec77	0.25571033
64	0x3e2e3533	0.17012481
65	0x3df7f258	0.1210677
66	0x3e7cd5ee	0.24690983
67	0xbdf3b880	-0.11900425
68	0x3e304007	0.17211924
69	0xbe1a3d63	-0.1506248
70	0x3d81c798	0.063368976
71	0xbd490971	-0.04908127
72	0x3e03aea8	0.12859595
73	0x3e2cb2d4	0.16865093
74	0x3e8077ef	0.25091502
75	0x3dcf4b9c	0.10121843
76	0xbe162dba	-0.14665881
77	0xbe04f6d6	-0.12984785
78	0xbd15f4ba	-0.036610343
79	0xbdac8db6	-0.08425467
80	0xbb4058b4	-0.0029349746
81	0x3c615db5	0.013755252
82	0xbe25d7a5	-0.16195543
83	0x3e5f6b11	0.21818186
84	0xbd1d1884	-0.038353458
85	0xbe60a6a3	-0.21938567
86	0x3e125d7d	0.14293475
87	0x3d485c60	0.04891622
88	0x3d5d4525	0.05402102
89	0xbc96406c	-0.018341266
90	0x3e0f9057	0.14019905
91	0xbe2724c8	-0.16322625
92	0xbe5e2a86	-0.21695909
93	0xbe96afcf	-0.29431006
94	0x3e701efa	0.23449317
95	0x3d97f9b7	0.07420676
96	0xbe9944c8	-0.29935288
97	0xbe0c0356	-0.13673148
98	0x3c0e3655	0.008679946
99	0xbe2d4240	-0.16919804
100	0xbe495308	-0.1966058
101	0xbdb08ebc	-0.086209744
102	0xbe1a6930	-0.15079188
103	0xbcc77e58	-0.024352238
104	0xbacf8757	-0.0015833181
105	0x3d9ecebc	0.07754275
106	0xbdceeeac	-0.10104117
107	0x3c89a156	0.016800564
108	0x3d9a86fa	0.07545276
109	0x3e4f34c5	0.20234974
110	0x3e383d83	0.17992215
111	0x3cb26c1c	0.021780066
112	0x3d56018c	0.05224757
113	0xbe7985a0	-0.2436738
114	0xbd5a35f6	-0.053274117
115	0xbe7a36a6	-0.24434909
116	0xbe1d4f0a	-0.15362182
117	0xbdb19ed9	-0.08672876
118	0xbc10fadf	-0.008848875
119	0xbe5b3fc4	-0.21411043
120	0xbe054f3e	-0.1301851
121	0x3dc7aeca	0.09750135
122	0x3e8f7a6a	0.28023082
123	0xbe4326ed	-0.19057818
124	0xbe092d31	-0.13396145
125	0xbd580263	-0.05273665
126	0xbd8c0739	-0.06837315
127	0x3d687630	0.056753337

net.model.convblock7.0.bias f4 [8]
0	0x3e7d81ba	0.24756518
1	0x3e0530ec	0.13006943
2	0xbb255a43	-0.0025230802
3	0x3e24d880	0.16098213
4	0xbdd15132	-0.10220565
5	0x3d2693ec	0.040668413
6	0x3e5af5b3	0.2138279
7	0xbe233fa0	-0.1594224

net.model.convblock7.2.weight f4 [8]
0	0x3f7a17d4	0.9769261
1	0x3f88e92f	1.0696162
2	0x3f7e4621	0.9932576
3	0x3f83b3bc	1.0289226
4	0x3f7de033	0.99170226
5	0x3f71f584	0.9451525
6	0x3f77ff5b	0.96874017
7	0x3f76d8d4	0.96424603

net.model.convblock7.2.bias f4 [8]
0	0x3d8a374d	0.06748829
1	0x3de16681	0.11005879
2	0xbbc5cbe3	-0.006036268
3	0x3dc28c47	0.09499412
4	0xbd9a96b7	-0.07548278
5	0x3d68d11a	0.05684004
6	0xbd6aea7d	-0.05735253
7	0x3d0d87be	0.034553282

net.model.convblock7.2.running_mean f4 [8]
0	0x3f20bd45	0.627888
1	0x3ee7fdf0	0.45310926
2	0x3e844148	0.25831056
3	0x3f280422	0.65631306
4	0x3ef14297	0.47121117
5	0x3ea3f954	0.3202616
6	0x3ea7822d	0.32716504
7	0x3dddc29f	0.10828137

net.model.convblock7.2.running_var f4 [8]
0	0x3f24e70b	0.64415044
1	0x3ef54609	0.47904995
2	0x3e4f8159	0.20264186
3	0x3f48e6b5	0.7847703
4	0x3f0ce6ff	0.5503997
5	0x3e910eaf	0.28331515
6	0x3e3f174f	0.18661235
7	0x3dc6b5b5	0.097026266
