S5/output/csv/version_3/checkpoints/epoch=4-step=275-v1.ckpt (torch, 179611 bytes, 152 tensors)

net.convblock1.0.weight f4 [10, 1, 3, 3]
000000 98 31 08 bd b5 a2 a8 3e 9e bd c2 3d f6 d7 28 bd
       -0.03325042 0.32936636 0.09508823 -0.04122158
000010 62 d4 16 be be dd c9 bc a5 c4 1a be 22 a7 84 bd
       -0.14729455 -0.024641868 -0.15114076 -0.064771906
000020 e5 74 93 be d0 2f 8b 3e 7e 1b 9e 3c cb 22 35 3e
       -0.2880012 0.27184916 0.019300219 0.17689054
000030 b9 8a 24 be b2 4b 4e bd 8b 00 c2 bd 0f f1 9b 3e
       -0.16068543 -0.050365157 -0.0947276 0.3045735
000040 f7 dd 24 be 73 3c 06 bd 76 c3 67 be e7 28 46 be
       -0.16100298 -0.032772493 -0.22633156 -0.1935154
000050 31 bd 8d 3e 61 d8 7d bd 18 61 99 bc f0 cf e6 3d
       0.27683404 -0.061973933 -0.018723056 0.1127013
000060 90 5b a9 bd f4 f8 93 bd 1c 18 5e 3e e2 0c a2 bd
       -0.08269417 -0.072252184 0.21688884 -0.079126135
000070 40 21 91 3e 21 aa f4 3d d8 6e 88 be 6b bb 1a 3e
       0.2834568 0.11946512 -0.26647067 0.15110557
000080 db a9 37 bd e4 f4 25 be af 25 77 be 81 b4 a1 be
       -0.04483972 -0.162067 -0.24135469 -0.31583026
000090 da 84 0d be 5d aa a6 be fa f8 81 3e de 60 4c 3d
       -0.1382021 -0.32551852 0.25385267 0.049897067
0000a0 8c 3a 90 3e 36 c5 a6 3e 9f 76 ac bd 08 a9 41 3e
       0.28169668 0.32572335 -0.08421063 0.18912137
0000b0 a1 7b 00 3e 39 b2 e8 3d 2e d0 91 3e 01 81 2c be
       0.1254716 0.11362118 0.2847914 -0.16846086
0000c0 c6 3f b3 be 41 e7 5c 3e 10 2b 0d 3c dc b7 7b be
       -0.35009593 0.21572591 0.008616224 -0.24581856
0000d0 c2 62 de 3d aa 3a 98 3e 2a cc 8f 3e 36 f7 3d 3e
       0.1085868 0.29732257 0.28085452 0.18551335
0000e0 89 39 3c be 47 b9 8b 3d df d8 4a bc 0e b7 00 bd
       -0.18381323 0.06822448 -0.012380808 -0.031424575
0000f0 9c 78 28 3e e8 fd 8d 3e 43 cb 9c 3d 6d b0 a0 3e
       0.16452259 0.27732778 0.076559566 0.31384602
000100 92 f0 76 3e 8f e4 0d 3e 2a eb 89 3e 1c 3f 89 3e
       0.24115208 0.1385672 0.26937228 0.2680596
000110 09 fb 68 3e 68 b9 d1 bd 01 33 55 bc 21 94 a5 bd
       0.22752012 -0.102404416 -0.013012649 -0.08084894
000120 fd 42 49 3e 2f 30 a1 be 2d 64 2c bd df 85 b1 be
       0.1965446 -0.31482074 -0.042087723 -0.34672448
000130 4a 8a 8e be 1a 49 aa be 0e 01 81 be 8a 8a 3b be
       -0.2783988 -0.33258897 -0.25196117 -0.18314567
000140 dc ef 9c bd 76 b3 f9 bd 23 2f 35 be c3 65 3e be
       -0.07662937 -0.121924326 -0.17693762 -0.18593507
000150 27 00 a3 be 42 b3 6c bd 80 30 9a be 51 d8 f0 bd
       -0.31836054 -0.05778814 -0.30115128 -0.11760009
000160 dc 1c c9 3d f7 ce 85 bb
       0.098199576 -0.00408351

net.convblock1.0.bias f4 [10]
000000 e7 b1 98 3e 0e 44 92 be d7 f6 02 3e ac 52 cf bd
       0.2982323 -0.28567547 0.12789474 -0.1012319
000010 8f 17 a8 bd 90 31 10 3e 68 b5 1e 3d 85 0b 27 be
       -0.082076184 0.14081407 0.03874722 -0.16312988
000020 57 a6 9e be 22 01 92 be
       -0.30986282 -0.2851649

net.convblock1.2.weight f4 [10]
000000 e9 8a 7b 3f 64 30 80 3f 93 52 86 3f f6 59 86 3f
       0.98258835 1.0014768 1.049395 1.0496204
000010 72 23 80 3f 42 6d 7d 3f b2 a0 7f 3f 1a 5c 74 3f
       1.0010817 0.9899484 0.99854577 0.95453036
000020 49 57 80 3f 58 45 81 3f
       1.0026637 1.0099287

net.convblock1.2.bias f4 [10]
000000 c6 34 af bc 44 49 08 bd e4 52 f6 bc 38 b1 1e 3d
       -0.021387469 -0.033272997 -0.030068822 0.038743228
000010 de 2c df 3b 14 a0 9c bc 62 bc 0b bd f8 98 ba bb
       0.0068107685 -0.0191193 -0.034115203 -0.005694505
000020 1a 4d 59 bb 64 f7 9b bb
       -0.0033157528 -0.004759716

net.convblock2.0.weight f4 [16, 10, 3, 3]
000000 d1 48 15 3d 4d 7a 3a bb ee 06 77 bd cd ff 00 bc
       0.036446396 -0.0028454245 -0.060309343 -0.007873488
000010 79 ba 70 bd 50 b5 91 3c 99 91 d4 3d 73 ea 97 bb
       -0.058771584 0.017786652 0.10379333 -0.004636103
000020 a6 05 c8 3d 42 3b 0d bd 97 0d 08 be ed 58 16 3d
       0.09766702 -0.03448034 -0.13286434 0.0367059
000030 c3 f6 4e bd 43 91 a4 bd 4c 89 fd 3d 71 24 26 3d
       -0.0505283 -0.08035519 0.12379703 0.040562097
000040 29 93 03 be bd 74 a9 3d 51 2d 06 be c7 41 84 bc
       -0.12849106 0.08274219 -0.13103224 -0.016144646
000050 8b aa df 3d 54 61 06 bd 4c c4 e8 bd 4d 22 4f 3d
       0.109212 -0.032807663 -0.11365566 0.05056982
000060 a6 77 56 bc a9 ec 80 3b 17 6b ae bd 00 fc da 3b
       -0.01309005 0.003934462 -0.085165195 0.006682873
000070 5b c5 7a bd 6a 58 36 3e 80 8d b3 3c 47 51 dd 3d
       -0.06122337 0.17807165 0.021918058 0.10806518
000080 58 c8 51 bd 1e 86 9a 3d de 8a 98 3d 5f 79 78 3d
       -0.051216453 0.07545112 0.07448362 0.060662623
000090 9a af 41 3c 81 b9 00 3d 63 66 26 bc 61 b9 f9 bd
       0.011821652 0.03142691 -0.010156247 -0.12193561
0000a0 ce d6 b4 3d 1c a2 55 3d 17 29 29 3d 4a 48 1e 3d
       0.08830033 0.052156553 0.041298952 0.03864316
0000b0 b4 6e c9 bd 55 82 6a bc 8a 77 8d bd 20 05 3a bd
       -0.09835568 -0.0143133 -0.06907566 -0.045415044
0000c0 b0 20 20 bc 1f e9 de bc 1a f4 73 3d 62 76 de bb
       -0.009773418 -0.02721077 0.059558965 -0.0067890147
0000d0 c4 09 40 bd ea cd ef bc 4c 7e 07 3d 95 ad 08 bd
       -0.046884313 -0.029272992 0.03307943 -0.033368666
0000e0 ad 4c 88 bd a4 2f cc bc 78 0f a1 ba 39 74 11 3c
       -0.0665525 -0.02492506 -0.0012287935 0.008877807
0000f0 1d 7a cd 3d bd 95 ca bd dc 12 d2 bd de 61 94 ba
       0.10033057 -0.098918416 -0.102575034 -0.0011320671
000100 f6 1d a7 bc d2 6e ea bd 0a 13 ad 3d 0c 9e e8 3c
       -0.020400029 -0.114469185 0.08450897 0.028395675
000110 b0 93 86 3d 9c 7e bc 3d 08 1e af 3d cc 54 c6 3d
       0.06571138 0.09203836 0.0855065 0.096841425
000120 85 57 ab bd c1 02 85 3d 2d 3b 6e bd a3 99 5b 3d
       -0.083663024 0.06494666 -0.058161903 0.053613316
000130 21 c2 83 bc 51 0e aa 3c ee 8c 68 bd 06 ab 1c 3d
       -0.016083779 0.02075878 -0.056775026 0.03824904
000140 3f ab 42 3d 25 9e 35 3d f1 3f 34 3d 97 f5 ee bd
       0.047526594 0.04434027 0.04400629 -0.11667936
000150 ce 30 6c 3c 39 09 26 bc 2c 4d cc bc 81 4f 5c 3d
       0.014415933 -0.010134035 -0.024939142 0.05378676
000160 72 60 e4 bd ae ae 9d 3d 22 09 35 3d a1 95 d1 3c
       -0.11151208 0.07699333 0.044198163 0.025584044
000170 46 ea 95 bd ca 4f 4b 3d b4 fa 9c 3d 36 6d 21 3d
       -0.07320075 0.04963664 0.07665005 0.039410792
000180 1f 17 f7 3d d0 91 c0 3d 54 fc fa 3d c0 f5 14 bc
       0.12064957 0.094028115 0.12255159 -0.0090917945
000190 6c 94 78 bd 70 77 dd bd 50 53 84 3c 20 47 2b bd
       -0.06068842 -0.108137965 0.016153008 -0.041815877
0001a0 2a ef b4 3c d9 ae fa 3c 5e ff c9 bd 62 84 80 bc
       0.022086699 0.030600952 -0.098631606 -0.015688125
0001b0 7f 99 23 bb e6 e0 51 3d e4 9e 60 bd 2e 8e 03 bd
       -0.0024963317 0.05123987 -0.05483903 -0.032118015
0001c0 3b f1 e6 bb 9b 24 76 bd 95 58 0c be e8 25 ed bd
       -0.0070478 -0.060093503 -0.13705666 -0.11579496
0001d0 56 4d 81 bc fe 2f bc 3d b9 1d 20 bd 2a d2 93 3d
       -0.015783947 0.09188841 -0.039090846 0.0721782
0001e0 6b e9 a5 bc e1 b6 f6 3c 52 b8 ca bb af fe 07 bd
       -0.020252904 0.0301165 -0.0061865235 -0.03320187
0001f0 96 8b 2a bd 07 85 80 bd 91 f5 e9 bc 78 bb 89 3c
       -0.041637026 -0.06275373 -0.028559478 0.016813025
000200 72 c9 7a 3d 2a 84 a2 3d 41 aa 85 3d e2 cb ee 3b
       0.06122727 0.079353645 0.06526614 0.0072874883
000210 62 77 ca bd bf 18 30 bd 67 d7 c2 3c c6 12 ed bd
       -0.09886052 -0.04299235 0.023784352 -0.115758464
000220 84 c3 73 3c ae 4f cf 3d 9f 6f fb 3c 94 d1 0a 3d
       0.0148781575 0.101226196 0.030692874 0.033891276
000230 1b eb e2 3c 08 40 19 bd f2 8f 68 bd dc 46 d4 bd
       0.027699998 -0.03741458 -0.056777902 -0.10365078
000240 50 75 db 3d 96 8f ad 3d 4f f3 df 3a cf e6 92 3d
       0.10715735 0.084746525 0.0017086061 0.071729295
000250 72 df 4a bb 71 56 2c bd ec c9 b3 bd f0 2b 3a 3d
       -0.0030955938 -0.042074624 -0.08778748 0.04545206
000260 2f 27 2a bb 0a 4f 76 bd 74 e8 a5 bd 6e 01 47 ba
       -0.0025963297 -0.06013397 -0.081009775 -0.00075914606
000270 de ea 4d bb 2d 75 a5 b8 3a e1 c8 3d 5d 5b 19 3b
       -0.003142051 -7.889639e-05 0.098085836 0.0023400404
000280 16 06 3f bc 7c 0b ae 3d b2 a7 b3 bd e9 b8 9c 3d
       -0.011659166 0.08498284 -0.0877222 0.07652456
000290 ed 5b 91 3d 7e b7 3c 3d 77 3a 59 3d 76 c2 48 bd
       0.070976116 0.04607343 0.053034272 -0.049013577
0002a0 40 33 ba bc 61 7b ac 3d 49 67 9b 3a e0 e6 8e 3c
       -0.022729516 0.0842197 0.0011856343 0.017444074
0002b0 6d 97 43 bd 7e 29 24 3c ff ca 9f 3c 44 f7 5b bb
       -0.047751833 0.010019658 0.019505976 -0.003356413
0002c0 d5 34 71 3c a2 c1 b2 3b 73 96 9d 3d 92 ae f1 bd
       0.014722069 0.0054552117 0.076947115 -0.11800875
0002d0 fd 21 96 3c 06 a6 f6 bd db ed b8 3d c9 48 b8 3c
       0.018326754 -0.12043385 0.09029742 0.022495644
0002e0 34 4d bb bd bb cc f1 3b c2 32 4d 3b 69 e9 54 3d
       -0.09145585 0.007379142 0.0031310772 0.05198041
0002f0 e2 cd 76 3d ed 0b 7c bd 17 f5 0d bd e8 c3 5b 3d
       0.06025494 -0.06153481 -0.034657564 0.053653628
000300 88 a8 da 3c 80 ce ba 3d 03 c2 ea 3d 31 16 2b 3d
       0.02669169 0.09121418 0.11462786 0.04176921
000310 91 cf c4 3b 3c c7 99 bd e2 c4 1f be 1e 44 9f 3c
       0.006006189 -0.07508704 -0.15602449 0.01944166
000320 53 4c b6 bd f0 bc 0c bc 0f 00 82 3d 45 11 51 bd
       -0.089012764 -0.008589968 0.063476674 -0.05104186
000330 be b2 63 bd cb 38 48 bd ea 24 17 3d d2 de 60 bc
       -0.055590384 -0.048882287 0.03690044 -0.0137249995
000340 f3 81 37 bd b0 18 9d 3d b0 af 16 3d 02 f1 82 bd
       -0.044801664 0.076707244 0.036788642 -0.06393625
000350 ab f9 b5 3d 4d bd 6d bd d0 53 c6 3d 5e 2d 86 3d
       0.08885511 -0.05804186 0.09683955 0.06551622
000360 91 24 a8 3c 96 37 d6 3c 9b 58 16 3e fe cc 6a bd
       0.020525249 0.026149552 0.14682238 -0.057324402
000370 7e f7 42 bc f9 e7 05 bd f3 70 88 3d 40 58 d5 bd
       -0.011899827 -0.03269193 0.06662168 -0.10417223
000380 b1 a3 15 3d 1c 1d b8 3d b8 19 87 3d cb dc 3a bd
       0.03653306 0.08989927 0.06596702 -0.04562072
000390 0f 4a e1 bc 45 74 62 3d 84 c2 ca bc 59 d7 66 3d
       -0.027501134 0.055286665 -0.024750955 0.056357715
0003a0 9e 2a 21 3d 47 dc 6b 3d ac 7c 0c 3e fb 80 03 3d
       0.039347284 0.05758312 0.13719434 0.032105427
0003b0 45 95 90 3d 65 f0 ba 3d 4b 49 20 3d b1 bd 52 bd
       0.07059721 0.09127883 0.039132398 -0.051450435
0003c0 e6 88 5a bc 61 73 5f 3d f1 21 86 3c e0 ac c8 3c
       -0.013338303 0.054553393 0.016373606 0.024496496
0003d0 d3 c5 fa 3c 79 95 2d bc 45 b8 e7 3c 67 78 95 3d
       0.030611908 -0.010594719 0.028286109 0.072983555
0003e0 a5 a6 ad 3d 9e 44 75 bd 4a 09 d3 3b 46 bb c2 bd
       0.084790505 -0.05987989 0.0064403163 -0.09508376
0003f0 9b 6b 9e bd 17 da b4 bd c0 01 01 3c a3 1f 82 bc
       -0.07735368 -0.0883066 0.007873952 -0.015884226

net.convblock2.0.bias f4 [16]
000000 75 38 7d bd 4e df 8a 3d 1c 38 05 3d 57 2e c6 bd
       -0.06182142 0.06780873 0.032524213 -0.096768074
000010 ab ff f7 3d 9c 04 50 bd f9 93 e5 3d ff fa 9b bb
       0.12109312 -0.050785646 0.11209864 -0.0047601457
000020 00 64 94 bc e3 db c0 3c 7a 2f 03 be 01 6a 88 bd
       -0.01811409 0.02354235 -0.1281108 -0.06660844
000030 80 2f 98 3c ea 64 0c bd 2a 16 1b bd 3f c6 c0 bd
       0.018577337 -0.034275927 -0.037862934 -0.094128124

net.convblock2.2.weight f4 [16]
000000 a4 a6 81 3f 00 d9 7e 3f cd 86 85 3f 7e bd 82 3f
       1.012898 0.99549866 1.0431763 1.0214078
000010 37 e9 7e 3f 1e 6e 81 3f bf bd 82 3f f7 ab 81 3f
       0.9957461 1.011173 1.0214156 1.0130605
000020 02 c6 7a 3f 25 8f 7f 3f d7 2f 7c 3f cc 06 83 3f
       0.97958386 0.99827796 0.985105 1.0236449
000030 49 93 7b 3f 6d ce 77 3f 3c 93 81 3f b7 ed 77 3f
       0.98271614 0.96799356 1.0123057 0.968471

net.convblock2.2.bias f4 [16]
000000 3e 5a 45 bc ba 28 c9 3c ac 13 05 bc 3d 9f d2 bc
       -0.012045441 0.024555553 -0.008122366 -0.025710696
000010 5b 80 3b bc 1b 53 dd 3c f9 5d a5 bc 3e 3f 03 bd
       -0.011444177 0.027017167 -0.020186411 -0.032042734
000020 c0 59 47 bc 40 10 84 bd 1f 9a b9 bc ff e3 b8 bc
       -0.012167394 -0.06448412 -0.022656498 -0.022569655
000030 1b 92 e2 bb 62 e6 a2 3c ac 41 49 bc 1a 5f 42 bd
       -0.00691439 0.019885246 -0.012283724 -0.047453977

net.convblock3.0.weight f4 [8, 16, 1, 1]
000000 7a fe 7d be bc 27 8b 3d 7a f0 7f be ba a2 16 be
       -0.24804106 0.06794688 -0.24994078 -0.14710513
000010 ec a4 9f bd cb da a4 bd 09 f8 53 be c6 09 fe bd
       -0.07795128 -0.08049544 -0.20700087 -0.12404208
000020 49 14 b9 3d 20 b2 d7 3d e8 6f 41 be 16 d1 3c be
       0.09037072 0.105320215 -0.18890345 -0.18439135
000030 20 3f cc 3c 43 db e6 bd 7f 67 3e be a9 ab bf bd
       0.024932444 -0.112722896 -0.18594168 -0.093589135
000040 04 b2 3c 3e 77 3d 5d bc ed 1b 7e 3e 97 e4 09 be
       0.18427283 -0.013503424 0.2481534 -0.13466106
000050 ed 1a 1c 3e 86 bb 81 bd 75 5e d7 3d d9 a5 86 3d
       0.15244646 -0.063345954 0.10516063 0.06574602
000060 aa 08 1d 3e 88 46 5a bc 08 4a 4a be 41 8d 4c 3e
       0.15335336 -0.01332248 -0.19754803 0.19975759
000070 14 c4 d3 3d e4 a6 c9 3d 9f 44 4d bd 80 5f 04 3e
       0.10340133 0.09846285 -0.05011427 0.12927055
000080 c8 16 f5 3d 15 af 7a 3e a9 dc 31 3d 07 13 99 3d
       0.11967236 0.24480851 0.04342333 0.07474332
000090 12 67 99 3e a7 98 9f 3d 87 51 96 bd c8 e7 25 be
       0.2996145 0.07792788 -0.07339769 -0.16201699
0000a0 43 dc 04 3e b9 86 30 bd 11 eb fd 3c 9b 5c a2 3d
       0.12974648 -0.04309723 0.030995877 0.07927819
0000b0 b6 ec 56 be d9 e5 65 3d 8e 1e 79 bd ff 25 2a 3e
       -0.20988736 0.056127403 -0.060820155 0.16616057
0000c0 1e 99 89 3e f5 1b 41 3e 91 d4 3a 3e 15 d1 a3 3c
       0.26874632 0.18858321 0.1824515 0.019997159
0000d0 76 fa e7 bc d7 b4 61 bd 2a 8b c4 3c 0a 84 3d 3e
       -0.028317671 -0.055104103 0.02399214 0.185074
0000e0 b5 9f 25 be 68 94 87 be a6 88 85 bd 1f 1b 03 3e
       -0.16174205 -0.26480412 -0.06520204 0.12803315
0000f0 cd 21 0e bd d6 3a 37 3e f6 e2 5e 3e fa 14 5a be
       -0.034700204 0.17893538 0.21766266 -0.21297064
000100 f1 b3 fa 3d f0 14 9d 3d 3d bd 8a 3d a7 73 5c 3e
       0.12241352 0.07670009 0.067743756 0.21528493
000110 5a 5b 04 be 70 a0 11 be ea 5f 18 3d 6c aa ec 3c
       -0.12925473 -0.14221358 0.037200846 0.028889857
000120 58 90 84 3e 8f d4 b9 bc 5d 81 9a 3d 60 b8 47 bb
       0.25891376 -0.022684364 0.07544205 -0.0030474886
000130 ff 0d 14 be a2 cf 95 bd 22 9c 50 3e 3e 4c 57 bc
       -0.14458464 -0.073149934 0.2037206 -0.013140736
000140 7f f7 92 bc 3e 62 d9 3d 5f e0 4e be 62 a2 26 be
       -0.017940281 0.10614441 -0.20202778 -0.16272882
000150 c7 dd a9 3c 85 14 62 3e 51 9e 6b 3e 72 48 ab bd
       0.020735634 0.2207814 0.23009612 -0.08363427
000160 0b 78 d5 bd 69 e2 db 3c 30 be 6d 3d 1c da 68 be
       -0.10423287 0.02684136 0.058042705 -0.22739452
000170 07 43 aa 3c c9 cd d9 3d bf 50 f6 3d c0 f7 d3 bd
       0.020783914 0.106349535 0.1202712 -0.10349989
000180 32 85 b0 3d 7f c1 aa 3d 2b 6c 1a 3e c7 18 16 3e
       0.08619155 0.08337688 0.15080325 0.1465789
000190 fc 0b 7d be 0a d0 62 3d 6f e4 52 be 45 70 da bb
       -0.24711603 0.055374183 -0.20594953 -0.0066662156
0001a0 0c e3 26 3e ae f4 0f be ce af 44 3e 3b dd fb bd
       0.16297549 -0.14058182 0.19207689 -0.12298056
0001b0 ad 24 31 be 50 96 88 bd 37 a6 29 be 09 06 93 bd
       -0.17299147 -0.06669295 -0.16567312 -0.071788855
0001c0 f0 b9 19 bd fa 9c 08 be 50 79 4a 3e 55 ba 95 3b
       -0.03753084 -0.13341132 0.1977284 0.0045693316
0001d0 26 10 2d be bb f5 31 3d 4b 8b 8f be be 33 a9 be
       -0.16900691 0.043447237 -0.2803596 -0.3304729
0001e0 69 4b 5e 3e fd 20 78 3d 81 60 fa 3c 04 00 01 3d
       0.21708454 0.060578335 0.030563595 0.031494156
0001f0 19 e5 4d 3e ae 82 49 be fc 54 7d bd 1f dd 4c be
       0.20106925 -0.19678757 -0.061848626 -0.20006226

net.convblock3.0.bias f4 [8]
000000 0a 88 6e 3e 65 5e ca bd 27 07 f0 bd 2d 0e 06 be
       0.23294082 -0.098812856 -0.11720114 -0.13091345
000010 37 7b 06 3e 16 eb db 3b 72 c4 39 3e 63 1c 0e 3e
       0.1313294 0.006711374 0.18141344 0.13878016

net.convblock3.2.weight f4 [8]
000000 07 82 84 3f 0c 46 6c 3f e3 69 76 3f 56 3b 7d 3f
       1.0352181 0.92294383 0.9625532 0.98918664
000010 49 50 87 3f 2c f0 6e 3f 11 b0 7a 3f 6d 6b 84 3f
       1.0571376 0.93335223 0.97924906 1.0345284

net.convblock3.2.bias f4 [8]
000000 f6 5d f5 bc 51 69 c0 3b 47 ef dd 3c 81 23 b0 3b
       -0.02995203 0.0058719297 0.027091635 0.005375326
000010 ea 5a 66 3a 5b 31 d8 3c 2e 82 5c 3c 16 d0 0d 3d
       0.0008787351 0.026390722 0.013458772 0.034622274

net.convblock4.0.weight f4 [16, 8, 3, 3]
000000 14 e2 52 3c 18 6b 16 bd df 10 0f be 32 75 c2 bc
       0.012871284 -0.036723226 -0.1397128 -0.023737524
000010 82 5c ec 3c b8 5c 85 bd 9c 76 3c 3d 8b 3a 22 3e
       0.028852705 -0.06511825 0.046011552 0.15842645
000020 16 e2 b4 3c fd 5d ed bc 2c 8a bf bd 88 52 11 3e
       0.022080462 -0.028975481 -0.09352526 0.1419164
000030 c0 58 ce bc 51 95 91 bd 8c 12 cd 3d bb 4e 3d ba
       -0.025188804 -0.07108558 0.10013303 -0.00072215096
000040 3e 82 bf 3d bd 02 48 3d 56 ff 2e 3d a3 60 5e 3d
       0.093510136 0.048830736 0.042723976 0.05429138
000050 bc 2c 91 bc 97 2a 12 bd 55 7b c7 3c f6 6a 88 bc
       -0.017721526 -0.035685148 0.024350801 -0.016652565
000060 aa 87 6d 3d 6f a9 a4 3c 09 be 9e bd ab ab c7 3b
       0.057990707 0.020100323 -0.0775109 0.0060934625
000070 1e 23 ce 3d e7 df ee 3d 9f 16 82 3d 4c 61 af bc
       0.10065292 0.116638 0.06351971 -0.0214087
000080 53 36 0b bc 63 38 94 3d 4a ac 2f 3c 16 6b 53 bd
       -0.008496839 0.072373174 0.010722229 -0.051615797
000090 65 88 a7 3d fe 79 1b 3d 6c a0 e4 3d 0b eb 78 bc
       0.08180312 0.037958138 0.111634105 -0.015192757
0000a0 38 d9 83 3c 29 89 0b bd a7 55 d9 bd 33 f8 a4 3d
       0.016094789 -0.034066353 -0.1061204 0.08055153
0000b0 7a 98 00 be 7b 3c 47 bd 13 f9 76 bd 96 2b f0 3c
       -0.12558165 -0.048641663 -0.06029613 0.029317658
0000c0 f2 f3 b2 3c f3 28 a5 bd b1 c8 f2 3d 39 3a 95 3d
       0.021844838 -0.08064451 0.11854685 0.07286496
0000d0 d6 5e 7a bc 06 43 ac 3d 17 23 bf 3d b8 52 52 bd
       -0.0152814 0.08411221 0.09332865 -0.051348418
0000e0 7a b1 b3 3d 3e 8f 33 3d fa ea 5f 3b b7 3f 51 bd
       0.08774085 0.04383778 0.0034167157 -0.051086154
0000f0 a7 d3 68 ba 9a 9a a6 3d 04 45 7b 3c 79 9f 22 3d
       -0.00088816363 0.08134957 0.015336279 0.039702866
000100 23 1a b8 bb d3 ef 05 bd 3c 0b 11 bc 18 a0 8c 3d
       -0.00561835 -0.032699417 -0.008852776 0.06866473
000110 43 a7 d0 bc e0 d0 3a 3b 4c fb 7b 3d f5 05 ca bd
       -0.025470382 0.0028505847 0.061518952 -0.098644175
000120 c5 50 c8 3c 1c 8c 85 bd a4 44 91 b7 88 20 98 bd
       0.024452576 -0.06520864 -1.731731e-05 -0.0742808
000130 74 c8 3f bd 61 dd 01 3d 3e df 85 3d f3 6d 04 3e
       -0.046822026 0.031705264 0.06536721 0.12932567
000140 0e c6 ff 3c 2e 20 dc bd 0d 20 fd 3c 0d aa b2 bd
       0.03122237 -0.10748325 0.030899072 -0.08723841
000150 20 05 37 bd dc f5 cd 3d 38 be d3 3d 13 b6 c1 bd
       -0.044682622 0.100566596 0.10339016 -0.09458556
000160 7e e0 c0 3c 24 96 37 3d 05 f8 38 bd 67 b4 c7 bd
       0.023544546 0.04482092 -0.045158405 -0.09751206
000170 3d f7 a5 bb e7 58 cc 3d cf 0e 8e 3d 85 f9 a1 3d
       -0.0050648735 0.09977894 0.06936418 0.0790892
000180 c8 b8 60 bd 62 ab aa 3d fe 8f 93 bd 8d 72 a0 bd
       -0.05486372 0.0833347 -0.07205199 -0.07834349
000190 d5 22 71 bd f5 64 92 bd 86 b0 b1 bd 9c 0f ef 3d
       -0.05887111 -0.07148162 -0.08676247 0.11672899
0001a0 44 a7 8c bd f2 e9 2f 3d 43 48 46 bd 34 cf d8 3d
       -0.06867841 0.042947717 -0.048408758 0.10586396
0001b0 f1 60 16 bd e2 11 30 bd 9e 78 21 bd 14 8f ba bd
       -0.036713544 -0.042985804 -0.03942167 -0.09109321
0001c0 9d 45 dc bd f4 41 ce 3d 5b 0c 0e be 8f 2b 9b 3d
       -0.10755465 0.10071173 -0.138719 0.075766675
0001d0 95 c4 b7 bd ad ca a7 3c 60 77 09 3e 29 a3 92 3d
       -0.08973042 0.020482386 0.13424444 0.071600266
0001e0 3a 00 58 bd 5d 4a 52 bd 36 b5 0e 3d 56 66 81 3c
       -0.05273459 -0.05134045 0.034840785 0.015795868
0001f0 46 c7 18 3c 10 47 18 3d 21 1f 83 bd 75 1f 6e 3d
       0.009324854 0.037177145 -0.06402422 0.05813547
000200 86 79 88 bd 6a cf 78 bd 0d dd 95 3d 31 20 d3 3d
       -0.06663804 -0.06074468 0.07317553 0.103088744
000210 4d ec 16 be e5 32 e7 bd 44 53 41 3c fd 37 95 bd
       -0.14738579 -0.11289004 0.011799637 -0.072860695
000220 92 f7 1a 3d 59 4f 6c bd 3c 24 1f bd 37 65 58 bd
       0.037833758 -0.05769286 -0.038852915 -0.0528309
000230 2f ac d9 3c 83 64 31 bd 1d 88 44 bd c8 70 d4 ba
       0.026571361 -0.043308746 -0.04798137 -0.0016207928
000240 62 5c 08 3c 97 c4 96 bd 8d 6e ab bd 60 e6 c0 bb
       0.008322807 -0.07361715 -0.08370695 -0.005886838
000250 06 0d d9 bd 3d 99 cc bc c8 eb ec 3c 6d cc ab bd
       -0.10598187 -0.024975413 0.028921023 -0.083886005
000260 9c 29 a6 bd 73 89 62 bd 4e 67 b2 3d 13 fe 2a bd
       -0.08113405 -0.055306863 0.0871111 -0.04174621
000270 2f 3e 9b 3d 3f 43 01 bc 1d 57 40 ba aa 71 ff bc
       0.0758022 -0.007889568 -0.00073371996 -0.031182129
000280 8d 67 a1 3d 11 cb ea bc ee f3 c1 3d 1e dd 9e bc
       0.07881079 -0.028661283 0.09470354 -0.019392546
000290 87 92 c0 3d 2e da 88 3d 3d 1d e5 bd 1c 55 85 3d
       0.09402948 0.066822395 -0.111872174 0.06510374
0002a0 3d a2 8a bd 09 d4 b2 bb 7c ad 4e bc d3 a9 8e bd
       -0.06769226 -0.0054574055 -0.012614604 -0.06965985
0002b0 fd b8 b2 bd 0a a5 07 3d b0 f6 1d 3d 22 90 47 3d
       -0.0872669 0.033116378 0.038565338 0.04872144
0002c0 de 5b 0f 3d a1 3d a0 3d a2 81 f8 bc 6a bc fd 3c
       0.03499972 0.07824255 -0.030335251 0.030973632
0002d0 11 05 62 bd 92 69 a7 3d 3c 3e d7 3d 29 58 fc 3d
       -0.055180613 0.08174433 0.10509917 0.12321503
0002e0 e5 20 be 3d 0f 1d 83 3d a5 5e 68 bd 60 29 c6 bd
       0.09283618 0.06402027 -0.056730885 -0.096758604
0002f0 49 2f 78 3b 09 e9 b5 bd 6a d5 cf 3c 35 d4 09 be
       0.003786998 -0.088823386 0.025370318 -0.13459857
000300 9e d5 91 bd aa 86 eb 3c 55 55 da 3c 22 59 7a 3b
       -0.07120822 0.028750736 0.026652018 0.00382001
000310 dc 2b 50 3d 7f c6 9c bd eb 53 38 3d 12 71 e0 3d
       0.050823078 -0.076550476 0.045001905 0.109590665
000320 37 e5 36 3d 56 bb 9b 3d 00 84 5f bd 1d e2 07 bd
       0.04465219 0.07604091 -0.054569244 -0.033174623
000330 76 82 f7 bd 79 bd a9 bd cb f2 9f 3b 63 b2 49 3d
       -0.1208543 -0.08288092 0.004881238 0.04924239
000340 b4 aa 71 3b 10 f7 3b bd b2 28 5a 3d 55 27 cc 3d
       0.0036875429 -0.045889914 0.053261466 0.099684395
000350 ff 3a 50 3d b0 dd 04 be 5b 34 94 bd 9c 4a 24 bd
       0.050837513 -0.12975192 -0.072365485 -0.040110216
000360 73 e6 08 be 43 51 ba 3c 4e 1f 8d 3d b9 d5 e0 bd
       -0.1336916 0.022743827 0.068907365 -0.10978264
000370 47 8d 2c bc af a9 5f bd ba 37 02 bd 09 9c a4 bc
       -0.01053173 -0.054605182 -0.031791426 -0.020093935
000380 4a 00 36 be 8b 3d 79 3d 7e 80 24 be 25 af 80 bd
       -0.17773548 0.060849708 -0.16064641 -0.06283406
000390 43 b5 03 bd 4f b2 79 bc 15 cc 53 bd 7a 61 dd 3d
       -0.032155287 -0.015240266 -0.0517083 0.10809608
0003a0 32 6d a6 3d a1 03 1a bd 8c 75 0d bd 93 a6 c2 bc
       0.08126296 -0.037601117 -0.03453593 -0.02376107
0003b0 06 44 a8 bc 83 c2 92 3c 7b 64 31 bc 38 91 45 3d
       -0.020540249 0.017915016 -0.010827179 0.048234195
0003c0 cc a1 8d 3d 52 52 15 bd 06 c3 b6 3d 58 90 3c 3d
       0.06915626 -0.03645546 0.089239165 0.046036094
0003d0 2c 71 25 bd e5 92 87 3b 40 6a 59 bd 71 e1 e0 3d
       -0.040391132 0.0041373842 -0.053079844 0.109804995
0003e0 a7 c5 4e 3c ad 02 ab 3d 8b f3 cb 3d 67 a0 51 bd
       0.012620366 0.0835012 0.099585615 -0.051178362
0003f0 54 1a 50 bd 8b 85 32 be bd 8b f8 bd b4 27 4e 3b
       -0.05080636 -0.17433755 -0.12136028 0.003145677

net.convblock4.0.bias f4 [16]
000000 5a bb 75 bd d2 81 b3 3d 94 5b b9 3d 64 d5 ab bd
       -0.059993125 0.08764996 0.0905067 -0.083903104
000010 36 72 86 3d 53 32 93 bd 8f 22 5b bd ff 86 4c bd
       0.06564753 -0.07187333 -0.053499755 -0.04993343
000020 13 59 85 bc 33 59 ed bd cf 6d 71 3d da 34 e1 bd
       -0.016277825 -0.11589279 0.058942612 -0.10996409
000030 6a 39 81 3b 32 2d fa bc ae 55 95 bd f4 bf da bc
       0.003943612 -0.030539129 -0.07291733 -0.026702859

net.convblock4.2.weight f4 [16]
000000 cf 4a 80 3f e9 ce 81 3f 4f d1 7b 3f 1c 26 7f 3f
       1.002283 1.0141269 0.98366255 0.99667525
000010 13 b9 81 3f d4 0b 86 3f 5e eb 82 3f 0f 7e 80 3f
       1.0134605 1.047236 1.0228078 1.003847
000020 1f 1c 86 3f 6c e5 74 3f 17 83 83 3f 59 45 80 3f
       1.0477332 0.9566257 1.027438 1.0021163
000030 87 d4 76 3f ab af 82 3f f4 b8 77 3f f3 4e 78 3f
       0.9641804 1.020986 0.9676659 0.96995467

net.convblock4.2.bias f4 [16]
000000 5b 4b b2 bc f8 3b 9d 3b 4d d1 71 3d 6d 5f 9f 3d
       -0.021764448 0.0047984086 0.059037495 0.07781873
000010 01 17 5e bb 85 fc 1a bc 5b dc 04 bc 55 07 4e 3d
       -0.0033888223 -0.009459619 -0.008109177 0.05029996
000020 d7 23 31 bb e3 0a c9 3c 9c 4d e1 bc 5f 74 dd bc
       -0.002702942 0.024541324 -0.027502827 -0.02703303
000030 3f fb 04 bc 8d 3a 80 bc e0 10 21 bd 77 ef 09 bd
       -0.008116542 -0.01565292 -0.039322734 -0.033675637

net.convblock5.0.weight f4 [16, 16, 3, 3]
000000 9b 34 8a bb c9 eb 1b bc 6c 47 b0 3c 5e 5e 0a 3d
       -0.004217697 -0.009516665 0.021518432 0.0337814
000010 1b ee 54 bd f4 e5 ea 3c 95 35 e2 3b 91 9b 81 bd
       -0.051984888 0.028674103 0.00690336 -0.063285
000020 d2 6e db bc 56 63 38 bd 8c 35 13 3d c0 c0 3f 3c
       -0.026786242 -0.04501661 0.03593974 0.01170367
000030 91 01 df bd 0a 53 b0 bd 8a df 27 bd 22 0d c3 bc
       -0.10888971 -0.086095884 -0.040984668 -0.023809973
000040 73 60 37 3c 35 69 ba 3d 5e 1a 8c bd fe e9 dd bb
       0.011192429 0.09102098 -0.06840967 -0.006772279
000050 6c 08 47 3d 32 ca ac bd 4e bf d8 bd 4f b4 08 be
       0.048592016 -0.08437003 -0.105833635 -0.13350032
000060 b6 69 3a 3c 15 b6 6d 3d 27 cb 5d bc d6 2a 55 bd
       0.0113777425 0.058034975 -0.013537205 -0.052042805
000070 53 87 93 bd 2d 5d 03 be b3 f2 77 3c d7 fe 85 bd
       -0.072035454 -0.12828512 0.015133548 -0.065427475
000080 2a ac 88 bc ad 9f d6 3c 2a 74 1f bd d4 45 53 3d
       -0.016683657 0.026199186 -0.038929142 0.051580265
000090 32 e5 88 3d 0d 90 e8 b9 0c 6f 49 3d 3c aa 46 bd
       0.066843405 -0.00044357814 0.04917817 -0.048502192
0000a0 11 6d cf bc f8 16 d0 3d 86 56 cc bd bb 46 ba bc
       -0.025320562 0.10160631 -0.099774405 -0.022738805
0000b0 fb 60 a5 3c dc 3c ca 3c de 12 6c bd b4 d0 45 bd
       0.020187845 0.024687223 -0.05763518 -0.048294738
0000c0 d2 00 67 3b 0c 25 b3 3c 6b 39 91 bd 6f bb 1c bd
       0.0035248292 0.021868251 -0.0709103 -0.038264688
0000d0 dd 3e 6e 3d d4 e6 62 bb 3b 39 dc 3d 88 18 11 3d
       0.05816542 -0.0034622448 0.10753103 0.035423785
0000e0 b4 cb c7 3d 36 58 e2 bd 93 13 8c bd 14 0b 1d 3d
       0.0975565 -0.11051981 -0.06839671 0.038340643
0000f0 17 11 af ba 50 80 22 3d ac f9 50 3d b8 d3 c4 3c
       -0.0013356534 0.03967315 0.051019356 0.024026737
000100 e3 b2 89 bd 3e f7 06 bc 76 e5 fe bd c3 7c e8 bc
       -0.06723573 -0.008237658 -0.1244611 -0.028379804
000110 ef 78 92 bd c5 b3 f5 bc 17 5a 0b bd d9 b7 5e bd
       -0.071519725 -0.029992947 -0.034021463 -0.05437455
000120 7d 45 c2 bb 0a 35 7d 3c e0 30 2b 3b 7d d8 41 bd
       -0.005928694 0.01545454 0.002612166 -0.0473256
000130 50 90 24 3d cb ed 7e 3b b3 72 0d 3d 46 01 35 3c
       0.04017669 0.003889906 0.034533214 0.011047667
000140 c2 90 27 3d a8 d4 4f bd 0e 1d d3 bc 2a eb 6c 3d
       0.040909536 -0.050739914 -0.02577069 0.057841457
000150 74 ad 52 bd 5c fc 07 bd 30 61 34 bd a3 2f c4 3d
       -0.05143495 -0.033199653 -0.044037998 0.095793985
000160 10 6a 49 bd 88 3a 4e 3c f7 3e 61 bc a9 94 1c bd
       -0.049173415 0.012587197 -0.013747922 -0.03822771
000170 26 46 84 bc 11 6b 44 bd d0 e5 d2 3c 2c ae 5a bd
       -0.01614673 -0.04795367 0.025744349 -0.05338876
000180 67 78 b2 bd f6 ee df 3c 06 8c 80 bd 5b 99 e9 bc
       -0.08714371 0.027335625 -0.06276707 -0.028515508
000190 b6 ba 89 3c 22 47 e7 3d bf ba 50 3d 1f e6 1b bd
       0.016812664 0.112928644 0.050959345 -0.038061257
0001a0 a5 ab 9c bc bb c8 18 bd 7d 0e a7 3c 00 15 8b 3d
       -0.019124815 -0.037300806 0.02039265 0.06791115
0001b0 50 96 24 bd 67 8d 0a 3d c1 be ab 3d df 31 8d bb
       -0.04018241 0.033826258 0.08385993 -0.0043089236
0001c0 5f a9 bd bd 26 cc d5 bd 70 e4 db 3c 6c 87 9e 3d
       -0.092608206 -0.10439329 0.026842326 0.077406734
0001d0 3b 83 ac bc f2 91 51 bc 9f 69 80 3d d8 e3 c1 b8
       -0.02105867 -0.012791144 0.062701456 -9.245396e-05
0001e0 ab ca 02 bd 3f dc c1 3c 8c db b2 3b f5 6d 02 be
       -0.03193156 0.023664592 0.005458301 -0.12737258
0001f0 8b d8 a3 3c 8b 6c 23 3c d3 4f a6 bd bc bf b2 3c
       0.020000717 0.009974609 -0.08120694 0.021819942
000200 65 57 ac 3c 6a 2b d3 3c b6 b8 de bc 88 09 34 3a
       0.021037767 0.025777537 -0.027187686 0.00068678753
000210 18 ed e1 3d 2d fb df bc 36 8e 9f b9 74 36 9b 3d
       0.1103155 -0.02734145 -0.000304328 0.075787455
000220 6f 32 14 bd c9 b5 b6 ba 76 36 e1 bd f1 fd 7a 3c
       -0.03618091 -0.0013939674 -0.10996716 0.015319333
000230 c0 1a a2 3b e6 a7 7b bd b2 e6 bb bb 11 16 b4 3b
       0.0049470365 -0.061439417 -0.005734288 0.0054957946
000240 79 5a 1e 3c 51 e0 1f bd fc 52 cb bd 4f 26 a5 bd
       0.009665125 -0.039032284 -0.099279374 -0.080639474
000250 79 35 c0 3d d8 b7 2e bd 60 bc 95 3c 76 56 24 bc
       0.09385199 -0.042655796 0.0182783 -0.0100303795
000260 2f f7 ac bc a0 6a 47 3b e9 52 cc 3c da af 22 3d
       -0.02111396 0.0030428544 0.024941878 0.039718486
000270 aa 10 2c bd 06 58 05 be f9 8b d0 bd f4 58 ac bd
       -0.04200808 -0.1302186 -0.10182948 -0.08415404
000280 1e 1a 6e bc 3f 2b 8e bc bd bf 21 3d 28 13 44 bd
       -0.014532594 -0.017354606 0.039489496 -0.04786983
000290 c1 95 35 bd c7 24 6a bc 3a 19 8f 3c 76 d4 a4 3b
       -0.04433227 -0.014290995 0.017468084 0.00503021
0002a0 08 07 2c 3c ab 4f a7 bd 3c 8f 05 bd 53 76 3b 3d
       0.010499723 -0.08169492 -0.032607302 0.04576714
0002b0 bc df 67 bd 6f d6 b5 bd 2e 52 29 bb 09 40 1e 3d
       -0.056609854 -0.088787906 -0.0025836336 0.038635287
0002c0 69 14 24 bd 0f c6 1b 3d 44 c4 f2 bb 62 e4 0d 3d
       -0.040058527 0.03803068 -0.0074086506 0.03464163
0002d0 5c 9b ac bd 20 86 ae bd 55 e9 82 bd a9 2e d2 3a
       -0.0842807 -0.08521676 -0.06392161 0.0016035634
0002e0 0f 5b c9 bb 36 04 81 bd 98 90 27 bc a6 01 59 bd
       -0.0061448882 -0.06299631 -0.010227345 -0.052980088
0002f0 12 83 56 3d b5 47 99 3d 8a c5 d8 3c 24 b5 41 3d
       0.052371092 0.0748438 0.026461381 0.04729189
000300 6a f5 fe bc 12 58 fc bb c0 eb 46 bd a0 07 07 bd
       -0.031122882 -0.0077009285 -0.048564672 -0.032966256
000310 0e 0f 0c bd 2d b5 f4 3b ac 83 53 3c 89 8e b5 3d
       -0.034194045 0.007467887 0.012909811 0.08865077
000320 df fa d8 bc c0 d7 0f 3b 7f 61 c0 bc 6e 50 51 bd
       -0.026486812 0.0021948665 -0.02348399 -0.051102094
000330 a7 75 fe bd b7 f2 29 3d c8 9b 36 3c 54 5c 40 3d
       -0.12424784 0.041491237 0.01114554 0.04696305
000340 aa a2 81 bc a8 f1 79 bd d8 aa 70 bd a5 55 41 bb
       -0.015824635 -0.061021477 -0.05875668 -0.002950051
000350 b2 2d ce 3c fb ae 65 bd 65 4c 8e 3d 72 79 9c 3d
       0.025168274 -0.056075078 0.06948165 0.07640351
000360 2a 3a c5 3d 0e 6d e0 bc aa 85 28 bd 2b 0b e1 bb
       0.096302345 -0.027395751 -0.041143097 -0.0068677864
000370 76 8c 95 3c d8 e4 4e 3d c5 e8 2c bd fe 6d ee bd
       0.018255454 0.05051121 -0.042214174 -0.11642073
000380 5a 66 32 bd ba 0e 7c bd 39 60 9a bb bf cf 82 bd
       -0.04355464 -0.06153748 -0.0047111777 -0.06387281
000390 20 22 81 3c 59 f7 32 bd 22 d2 1b 3d 0f 6b 0b bd
       0.015763342 -0.04369292 0.038042195 -0.034037646
0003a0 5b e6 56 bd 4a 04 b3 3d c1 b7 b9 bd a4 ee 6e bc
       -0.052465778 0.087410524 -0.090682514 -0.014583264
0003b0 54 9d a5 3a b1 02 8a 3d 70 a4 09 be ee 3d d5 bd
       0.0012635388 0.067387946 -0.13441634 -0.10412203
0003c0 20 af d4 bc 15 ec 5a bd 39 72 3d 3d 7e 6c 2d 3c
       -0.025962412 -0.0534478 0.04625151 0.010584949
0003d0 87 44 eb 3c 32 f1 89 3d f2 f8 54 3c 41 28 c3 3d
       0.0287192 0.067354575 0.012998806 0.09529162
0003e0 f4 07 c6 bd d5 26 48 bd a6 7a bb ba 84 e6 90 bd
       -0.09669486 -0.048865158 -0.001430352 -0.07075217
0003f0 9c aa 6c bd b3 22 7a bc f9 f0 83 3d 12 be c4 3d
       -0.057779893 -0.015267062 0.06442446 0.096065655

net.convblock5.0.bias f4 [16]
000000 18 ea be bd 2f f2 95 bd 33 e2 75 bd 32 fb 6a 3d
       -0.093219936 -0.073215835 -0.060030174 0.057368465
000010 6c d3 b5 3d c2 92 7b bd 49 70 72 bc 76 f5 d1 3b
       0.08878216 -0.061419256 -0.014797279 0.006407435
000020 62 87 0b bd d5 01 26 3d 95 6c 90 3a 92 c0 02 3b
       -0.034064658 0.04052909 0.0011018688 0.0019951207
000030 34 79 90 3d ab 23 2c bd 6a 09 d0 bd 2f dc 63 bd
       0.07054368 -0.042026203 -0.101580456 -0.055629905

net.convblock5.2.weight f4 [16]
000000 b9 56 81 3f 4d 8b 7b 3f 80 62 85 3f 65 e3 82 3f
       1.0104591 0.9825943 1.0420685 1.0225645
000010 2c f2 78 3f 78 55 81 3f 5b bd 83 3f 8f 80 82 3f
       0.97244525 1.0104208 1.0292162 1.0195483
000020 8f 3b 81 3f c0 47 80 3f 11 fb 7c 3f 45 e0 76 3f
       1.0096301 1.0021896 0.98820597 0.9643596
000030 f1 90 7d 3f c1 27 82 3f e6 62 84 3f eb 28 7c 3f
       0.9904929 1.0168382 1.0342681 0.98499936

net.convblock5.2.bias f4 [16]
000000 31 4b d2 3c 1b 71 64 3c 3f 62 f3 3b 1d 85 2d bb
       0.02567062 0.013942982 0.0074274833 -0.0026477047
000010 ba af d3 3c 55 09 09 3c eb 40 46 bb 98 26 f8 ba
       0.025840629 0.008364041 -0.0030251096 -0.00189324
000020 9e b6 a7 bc 8d 35 80 bc 41 ed 41 bc 8c 43 5d 3c
       -0.02047282 -0.015650535 -0.011836351 0.013504874
000030 1a 09 41 bc cf 01 24 bc 97 b5 7b bb 27 d1 29 bb
       -0.011781955 -0.010010197 -0.0038407797 -0.0025912018

net.convblock6.0.weight f4 [16, 16, 3, 3]
000000 60 e1 92 bd 26 4d 04 be 56 bf 53 3b 5d 18 9e 3d
       -0.07171893 -0.12920055 0.003231009 0.07719491
000010 91 75 b7 3c 94 1b cc 3d 11 e9 92 3d 4a f6 75 3c
       0.022394927 0.099661976 0.0717336 0.015012333
000020 27 74 ba 3d 37 33 eb 3c c7 37 f8 bb b4 48 31 bd
       0.091041856 0.028710945 -0.0075750086 -0.043282226
000030 10 a5 02 bd 0c aa fc 3c 94 ee 1d bd 7a d7 d9 bd
       -0.031895697 0.030842803 -0.038557604 -0.10636802
000040 a1 af 93 bc 25 fc be bc b6 6f a0 bd 41 14 6b bd
       -0.018028082 -0.023313591 -0.07833807 -0.057392363
000050 3e 5d 55 3c 0a f4 d6 3c 25 72 10 bd 0b c5 27 bd
       0.013022719 0.026239414 -0.035265107 -0.0409594
000060 b4 8a 81 bd 72 2d 60 bd f1 27 2b bd cf de 19 3c
       -0.06325284 -0.05473084 -0.041786138 0.009391501
000070 ba 58 1a bd a0 0e 37 39 76 80 61 bd 1d a2 3c bd
       -0.037682272 0.00017457688 -0.05505415 -0.04605304
000080 ea 37 8c bd 7f 13 b7 bd 9f fc 1e 3b 48 58 9d 3d
       -0.06846602 -0.089392655 0.002425946 0.07682854
000090 3a f2 4d 3d 2f aa e7 3c 8c 2e 9c 3d 3a 58 1d 3c
       0.050279833 0.028279392 0.076260656 0.009603554
0000a0 b2 5e 41 bd 88 c5 80 bd d2 56 ba bb 30 94 8b bd
       -0.04720945 -0.06287676 -0.0056866193 -0.06815374
0000b0 e2 e8 5b 3d e6 4c 68 3d a6 86 8f bd 96 aa 1f 3d
       0.05368889 0.05671396 -0.07008104 0.038981043
0000c0 79 8e 00 3d a6 10 7e 3d 34 e3 44 bc 2d 59 9f bc
       0.031385873 0.062027596 -0.01201706 -0.019451702
0000d0 a6 9d 6c bd 5b 82 f2 3d 46 9d 23 bd 27 b8 30 3c
       -0.057767533 0.118412696 -0.03994491 0.010786093
0000e0 f9 d3 05 3e 7b c0 e8 bc c2 29 8d bd 18 15 65 3c
       0.13069142 -0.028412094 -0.0689273 0.01398208
0000f0 e7 32 84 3d 60 83 7d 3d 90 ca 21 3d 7c fa b8 bc
       0.06455021 0.061892867 0.03949982 -0.022580378
000100 c3 6e 26 3d 8f 15 1e bd 3c b1 85 3d 33 7f 51 3d
       0.040632974 -0.03859478 0.065279454 0.051146697
000110 8c e1 47 3d 07 14 2e bc b3 ae 62 bd a6 22 36 bd
       0.048799083 -0.010624892 -0.055342387 -0.044466637
000120 f5 4c 55 3d 35 a0 8a 3d 8a a3 d5 3d 99 12 d3 3c
       0.052075345 0.06768838 0.10431583 0.025765704
000130 38 af ca bc 8b 84 27 3c 2c fa 37 bd 61 41 cf 3c
       -0.024741754 0.010224472 -0.044916317 0.02529973
000140 7e 10 11 3d d6 78 19 bd 83 ed 35 bd 6d 77 1f bd
       0.03541612 -0.037468754 -0.044415962 -0.038932253
000150 47 86 72 bd ba 81 63 3d 53 6f f7 3d 7c e5 5c 3d
       -0.059210088 0.05554364 0.1208178 0.05392979
000160 7f eb 20 3d 63 6d f6 3c 5f ce 81 3c 16 36 22 bd
       0.039287087 0.030081457 0.015845476 -0.03960236
000170 fa 07 84 bc 73 2d 63 3d 95 10 c2 3d 90 68 b6 3d
       -0.016117085 0.055463266 0.09475819 0.089066625
000180 d0 04 14 3c 7e 96 a3 3d c5 7f 9b 3d a0 90 36 3d
       0.0090343505 0.079876885 0.075927295 0.04457152
000190 0c 44 40 3d aa 80 44 3d 5e cd 4b 3c 15 2a 68 bc
       0.046939895 0.047974266 0.0124391 -0.014170189
0001a0 70 17 41 3c 3f ff 69 3d d7 33 9e 3d e3 73 34 bc
       0.011785373 0.057128187 0.077247314 -0.011013958
0001b0 f5 a0 41 3c 08 13 40 3d 52 c2 ea 3d 8e d1 1e 3d
       0.01181816 0.04689315 0.11462845 0.038774066
0001c0 e4 77 47 3d 10 f6 3d 3c 36 cf c9 3c 26 01 6f bd
       0.04869832 0.01159431 0.024634939 -0.058350705
0001d0 93 a9 1f 3d 0c d5 a8 ba 77 0b 78 bd 64 b1 c1 3d
       0.038980078 -0.0012880876 -0.06055781 0.09457663
0001e0 c8 6a 6c 3d 00 83 33 bd 6b 6a 93 3c 3c 8d 43 bd
       0.057719022 -0.043826103 0.01799508 -0.047742113
0001f0 9c 3d 37 bd 92 7b 27 3d 73 c6 20 be e6 08 98 bd
       -0.04473649 0.04088933 -0.15700702 -0.07423572
000200 5d af c1 bd 80 3e 1f bd 3c 9e 70 3c 0a 57 16 bd
       -0.09457276 -0.038877964 0.0146861635 -0.0367041
000210 3c ab d1 bd 04 46 c0 bb 6c 7c 2c bb d7 e3 bf 3d
       -0.102377385 -0.0058677215 -0.0026319278 0.09369629
000220 0b 49 88 3d 67 48 1b bd c7 8a 8b bc 15 ae 8b 3d
       0.06654557 -0.037910845 -0.017033948 0.06820313
000230 57 5e 96 bd b6 00 08 3e a7 12 16 bd a1 af 72 bd
       -0.07342213 0.13281521 -0.036638882 -0.059249524
000240 2c a8 ac 3b a5 f2 81 3c bd f6 9e bc 54 8f dd bc
       0.005269071 0.015862772 -0.019404763 -0.027045883
000250 e7 6b e1 3d c3 2a e4 3d d4 62 c1 bc ba 01 83 3d
       0.11006909 0.11140969 -0.023606695 0.06396814
000260 02 d1 af bc b5 1b f4 3c f0 15 d7 bc c3 d4 80 3d
       -0.021461967 0.029798368 -0.026255578 0.06290581
000270 7d 5f 80 3d 55 99 9a 3c dc 2a 8e b9 97 58 18 bd
       0.06268213 0.018871943 -0.00027116283 -0.03719386
000280 6a 69 c9 3d 9f c3 a3 3d df ee 34 bd 43 e0 31 3c
       0.09834559 0.07996296 -0.044173118 0.010856691
000290 7e 0b 0c bd e2 cd 45 bd 02 4d 27 3d 39 80 8b 3c
       -0.034190647 -0.04829205 0.040844925 0.017028915
0002a0 6e 5a bc 3c 83 36 22 bc 95 8b 15 3c 10 83 63 3b
       0.022992339 -0.009900692 0.009127517 0.003471557
0002b0 ae 61 2c bd 8a 65 97 bc 5f 4c 04 3e 09 98 f9 3d
       -0.042085342 -0.018481035 0.12919758 0.121872015
0002c0 60 84 61 3d 1e 56 19 3d 6b 5d dd 3d f7 f4 93 3d
       0.055057883 0.037435643 0.10808834 0.07224458
0002d0 b4 d7 64 3b 89 08 d2 bc 7a cd 81 bd 28 13 a7 3c
       0.0034918608 -0.025638836 -0.0633802 0.020394877
0002e0 a9 04 54 bd be 6d 8e 3d 08 aa 33 3d c0 51 67 3d
       -0.051762257 0.069545254 0.043863326 0.056474447
0002f0 ec ad 32 3d 00 6c b8 bc 9a fb 56 3d ed 09 bd bc
       0.043622896 -0.022512436 0.05248604 -0.023076022
000300 e9 d0 13 bd 84 37 04 3d 2c ac 42 3b 80 13 8e 3d
       -0.036087904 0.032279506 0.0029704673 0.06937313
000310 b0 de 82 b8 f8 9c 03 bc 7b 5b 48 3d 95 95 b0 3b
       -6.240362e-05 -0.00803303 0.048915368 0.0053889253
000320 91 71 9e 3d 95 f3 f8 bc 0d 43 b6 bd a4 05 87 3b
       0.07736505 -0.030389586 -0.08899508 0.0041205455
000330 47 fc 14 3d fd be e1 bb b7 ba e3 3d 07 41 e7 3c
       0.036373403 -0.0068892227 0.111195974 0.02822925
000340 13 9d 30 3d f9 e1 14 3d d7 2f 08 bc 58 36 2b 3d
       0.043118548 0.036348317 -0.008312187 0.041799873
000350 15 b9 73 3d 28 5a 38 3b ed 36 83 3b 89 ff f1 bb
       0.05950268 0.002812991 0.0040043504 -0.0073851985
000360 a0 0f 16 3d 68 69 21 3c e7 47 18 b9 a4 f7 a0 3b
       0.036635995 0.009851791 -0.00014522635 0.0049123336
000370 b8 c9 b7 bc 1a fe cc 3b b7 54 11 be d0 f5 ab bd
       -0.022435054 0.006255877 -0.14192472 -0.083964944
000380 ff 76 11 3c 33 6a d9 bc ba 55 85 3d 25 30 85 3d
       0.008878469 -0.026539898 0.06510492 0.065033235
000390 eb 55 da 3d d7 54 e8 bc 7d cc e6 3c 81 fa b2 3a
       0.10660919 -0.028360767 0.02817368 0.0013654978
0003a0 19 88 30 39 ef 7b 22 bd 5a 06 6e 3d bd cb b1 bc
       0.00016835368 -0.039668974 0.058111526 -0.021703595
0003b0 5c ad ed bc 6b 13 86 3d 5c ac 36 3d 05 57 be 3d
       -0.029013328 0.065466724 0.04459797 0.092939414
0003c0 67 da 03 3d eb 48 77 3c 83 bf ee 3d bb c5 aa bd
       0.032190707 0.015093069 0.11657622 -0.08338495
0003d0 82 95 8f 3c 2a 3e 78 bd 40 fb 1a bd fa 49 46 3c
       0.017527346 -0.06060616 -0.037837267 0.012102598
0003e0 b6 f9 75 bd b6 31 07 bc f5 b7 e3 3c f1 f5 a1 3c
       -0.060052596 -0.008251598 0.027797678 0.019770594
0003f0 ff 12 8a 3d 44 71 8b 3d 0d 08 c9 3c fd 09 43 bd
       0.067419045 0.06808713 0.024539972 -0.047616947

net.convblock6.0.bias f4 [16]
000000 aa af 13 bd 07 3d f0 bd 8e 52 b1 bd d3 bc 16 bd
       -0.0360562 -0.1173039 -0.08658324 -0.03680117
000010 34 bb 6b 3b 51 46 df 3a 33 e6 7a 3c 77 b2 39 3c
       0.0035969736 0.0017034506 0.015313673 0.011334053
000020 87 fb e3 3c 4e 09 26 3d 30 d2 98 bd c4 f8 16 3d
       0.027829899 0.040536217 -0.07461965 0.036858335
000030 57 45 f4 bb 7b a9 c2 3c 1c 64 fe 3c fe 22 bb bc
       -0.007454555 0.023762455 0.031053595 -0.022843834

net.convblock6.2.weight f4 [16]
000000 ea ea 76 3f b7 8d 81 3f 75 f7 82 3f 44 0b 82 3f
       0.964522 1.0121373 1.0231768 1.0159688
000010 0e 58 83 3f 56 31 75 3f f1 00 75 3f 0b 86 7b 3f
       1.0261247 0.95778406 0.9570456 0.9825141
000020 82 9c 7c 3f 10 5a 81 3f ca 1c 79 3f 7f 3c 86 3f
       0.9867631 1.010561 0.97309554 1.0487212
000030 b8 3b 8a 3f 1c fe 81 3f c3 f8 81 3f 89 45 84 3f
       1.0799475 1.0155673 1.0154041 1.033372

net.convblock6.2.bias f4 [16]
000000 9d f1 f7 3c e9 7a 1c bd c8 fc 0d bd dc 0a ec bc
       0.030266577 -0.038203154 -0.0346649 -0.028813772
000010 8c 48 3f bd 3b f7 93 bd 39 a0 3e bc f3 5d 9a 3c
       -0.046700045 -0.0722489 -0.01163488 0.018843627
000020 42 b0 b3 bd cd c4 3f bd 94 0b 16 bb 6b 42 1e bd
       -0.08773853 -0.046818543 -0.0022895085 -0.03863756
000030 ba 2d 1a bd e9 28 41 bc 86 12 26 bd 4f 8d 68 bd
       -0.037641264 -0.011789539 -0.04054501 -0.056775387

net.convblock7.0.weight f4 [8, 16, 1, 1]
000000 e9 d8 4e 3e 07 f1 2d 3e 51 2c 12 3d 9b 2c 91 be
       0.20199932 0.16986476 0.035686795 -0.28354344
000010 67 c1 a9 3d 71 09 88 3d ad 19 3e 3e 13 bf 6c 3e
       0.08288842 0.06642426 0.18564482 0.23119764
000020 07 48 c8 bd 90 82 2e 3e 50 a1 27 bd 69 7f c9 bd
       -0.09779363 0.17041993 -0.040925324 -0.09838755
000030 81 54 12 be d7 2e a4 bd 3a ee 1e 3e 3e ef 90 3d
       -0.14290048 -0.080167465 0.15520564 0.07076882
000040 40 b2 6b 3e ae 54 e0 3d ca bb 47 3e d4 ab 31 3e
       0.23017216 0.10953651 0.1950523 0.17350703
000050 d5 38 88 3c 52 c8 d8 bd 26 48 2e 3e 8e 40 14 3c
       0.016628662 -0.10585083 0.1701971 0.009048594
000060 32 94 30 bc 85 c4 cd 3d ca 90 77 3c 61 fa 80 be
       -0.01077752 0.10047249 0.015110204 -0.25191024
000070 1a 95 4f be b5 c5 09 3e be 61 21 be 2a 8d e6 bd
       -0.20271721 0.13454325 -0.15759942 -0.11257394
000080 c6 ab 1b 3e f3 3a 43 be 58 11 6d be 3c 6d 8d bd
       0.15202245 -0.19065456 -0.23151147 -0.069056004
000090 7d 43 90 be 58 3a 2f 3e e8 0a 51 3e 0d 65 0c 3e
       -0.2817649 0.171121 0.20414317 0.13710423
0000a0 79 43 ee bd f4 a1 e0 3d 41 e3 81 3e 85 8e 8d bd
       -0.11633963 0.1096839 0.25368693 -0.06911949
0000b0 d4 47 fd bd 75 56 15 3d 71 c4 81 3e c1 30 64 3e
       -0.12367216 0.036459405 0.25345185 0.22284223
0000c0 d9 76 b7 bd 15 7d 4c 3e 0b 35 d6 3d 96 d3 e2 bc
       -0.08958215 0.1996959 0.10459336 -0.027688783
0000d0 ac d7 ce bd cb 3b e1 bd c5 b1 34 bd f5 72 09 be
       -0.1009973 -0.10997733 -0.044114847 -0.13422759
0000e0 ec af 47 bd 12 5e fe bd 56 55 26 be 3e 3b 03 bd
       -0.048751757 -0.12420286 -0.1624349 -0.03203892
0000f0 af a6 c2 3d 26 38 13 be 6d 3b 54 3d eb ec 60 3e
       0.095044486 -0.14376888 0.051814485 0.21965377
000100 d9 37 6f be 34 81 87 be e2 e1 91 bd 0c df 90 3d
       -0.23361148 -0.26465762 -0.07123162 0.07073793
000110 71 f7 f3 bd 2c 0a 45 bd 5a e5 6c be a0 cf 86 3d
       -0.1191243 -0.048105404 -0.23134366 0.0658257
000120 37 09 0c be 38 c5 3d bd 17 bf 91 bd 97 90 df 3d
       -0.1367539 -0.04633066 -0.071165256 0.1091625
000130 1a ab c0 bd f7 9f 3e be 95 69 8d bd 9a cd 88 bd
       -0.09407635 -0.18615709 -0.06904904 -0.066798404
000140 9d 23 b6 3d 5b b3 1b be ff b3 36 3e fc ef 2d be
       0.088935114 -0.15205137 0.178421 -0.16986078
000150 c3 75 19 3e 26 7f 02 be 97 f2 94 bd 67 25 0b 3e
       0.14986329 -0.12743816 -0.07272833 0.13588487
000160 7c 42 b4 ba 47 a4 95 3d 98 88 64 3e 4d e8 28 bd
       -0.0013752724 0.07306724 0.22317731 -0.041237164
000170 d9 a5 ba bd 32 3d 15 be 14 2c 05 3e e2 a9 90 be
       -0.09113664 -0.14574125 0.13005096 -0.2825461
000180 2c 03 12 3e ab e8 2d bd bc 49 9f be 22 5a 23 be
       0.14259022 -0.042458218 -0.31110942 -0.15952352
000190 0a af 26 be f7 98 16 bd 55 b1 9d 3d 1c 98 e8 3d
       -0.1627771 -0.036766972 0.07699839 0.113571376
0001a0 76 c6 d4 bd db a4 a8 bd c7 ba 27 3e 87 ed 09 3e
       -0.10389416 -0.08234569 0.16379844 0.13469516
0001b0 88 f0 cf 3d bc 93 49 3e df 1b 0f be 03 0a b7 3d
       0.101532996 0.19685262 -0.13975476 0.089374565
0001c0 4c 8f 4d be 28 2b 5a 3b be c8 37 3e 7e f6 50 3e
       -0.20074195 0.0033289883 0.17947671 0.2040653
0001d0 92 32 c8 bc f4 8b 70 3e ea f3 03 be ef d8 44 3e
       -0.024438176 0.23490888 -0.12886015 0.19223379
0001e0 bb c5 93 be b6 70 45 be 5c 5a 39 be 2b 32 84 be
       -0.28861794 -0.19281277 -0.18100876 -0.25819525
0001f0 88 e5 46 bc de 76 2f 3e d4 08 66 3e 36 f3 3b 3e
       -0.012139685 0.17135188 0.22464305 0.18354496

net.convblock7.0.bias f4 [8]
000000 8d b9 24 be ea a8 51 be b1 be 9e bd ed 96 4d be
       -0.16086407 -0.20474592 -0.07751215 -0.20077105
000010 37 fc 1e be e2 26 80 3c eb 74 17 3e 99 9b 32 be
       -0.155259 0.01564354 0.14790694 -0.17442168

net.convblock7.2.weight f4 [8]
000000 2a 6e 86 3f aa f0 80 3f b7 55 87 3f e2 2c 79 3f
       1.0502369 1.0073445 1.0573033 0.9733411
000010 93 7c 79 3f 6c 56 76 3f 75 f1 76 3f 92 48 72 3f
       0.9745571 0.9622562 0.96462184 0.94641984

net.convblock7.2.bias f4 [8]
000000 81 b2 a2 bd c7 82 0b bc d3 73 ab bc 9f 8f 65 bb
       -0.07944203 -0.0085150665 -0.020929253 -0.0035028232
000010 7c 5b df 3c 11 85 ae bb 8c 96 66 bd b2 3a ec bc
       0.027265303 -0.0053259213 -0.056295916 -0.028836582
